name: "ResNet-101-gtc"
layer {
    name: "data"
    type: "Data"
    top: "data"
    top: "label"
    include {
        phase: TRAIN
    }
    transform_param {
        mirror: true
        crop_size: 224
	mean_file: "/home/xiangye/test_StanfordCars-python/lmdb/imagenet_mean.binaryproto"
        #mean_value: 104
        #mean_value: 117
        #mean_value: 123
    }
    data_param {
        source: "/home/xiangye/test_StanfordCars-python/lmdb/train_data_lmdb"
        #batch_size: 32
	batch_size: 18
        backend: LMDB
    }
}
layer {
    name: "data"
    type: "Data"
    top: "data"
    top: "label"
    include {
        phase: TEST
    }
    transform_param {
        mirror: false
        crop_size: 224
        mean_file: "/home/xiangye/test_StanfordCars-python/lmdb/imagenet_mean.binaryproto"
        #mean_value: 104
        #mean_value: 117
        #mean_value: 123
    }
    data_param {
        source: "/home/xiangye/test_StanfordCars-python/lmdb/test_data_lmdb"
        batch_size: 2
        backend: LMDB
    }
}

layer {
    bottom: "data"
    top: "conv1"
    name: "conv1"
    type: "Convolution"
    convolution_param {
        num_output: 64
        kernel_size: 7
        pad: 3
        stride: 2
        weight_filler {
            type: "msra"
        }
        bias_term: false

    }
    param {
        lr_mult: 0
    }
}

layer {
    bottom: "conv1"
    top: "conv1"
    name: "bn_conv1"
    type: "BatchNorm"
    batch_norm_param {
        use_global_stats: false
    }
    param {
        lr_mult: 0
    }
    param {
        lr_mult: 0
    }
    param {
        lr_mult: 0
    }
}

layer {
    bottom: "conv1"
    top: "conv1"
    name: "scale_conv1"
    type: "Scale"
    scale_param {
        bias_term: true
    }
    param {
        lr_mult: 0
    }
    param {
        lr_mult: 0
    }
}

layer {
    bottom: "conv1"
    top: "conv1"
    name: "conv1_relu"
    type: "ReLU"
}

layer {
    bottom: "conv1"
    top: "pool1"
    name: "pool1"
    type: "Pooling"
    pooling_param {
        kernel_size: 3
        stride: 2
        pool: MAX
    }
}

layer {
    bottom: "pool1"
    top: "res2a_branch1"
    name: "res2a_branch1"
    type: "Convolution"
    convolution_param {
        num_output: 256
        kernel_size: 1
        pad: 0
        stride: 1
        weight_filler {
            type: "msra"
        }
        bias_term: false

    }
    param {
        lr_mult: 0
    }
}

layer {
    bottom: "res2a_branch1"
    top: "res2a_branch1"
    name: "bn2a_branch1"
    type: "BatchNorm"
    batch_norm_param {
        use_global_stats: false
    }
    param {
        lr_mult: 0
    }
    param {
        lr_mult: 0
    }
    param {
        lr_mult: 0
    }
}

layer {
    bottom: "res2a_branch1"
    top: "res2a_branch1"
    name: "scale2a_branch1"
    type: "Scale"
    scale_param {
        bias_term: true
    }
    param {
        lr_mult: 0
    }
    param {
        lr_mult: 0
    }
}

layer {
    bottom: "pool1"
    top: "res2a_branch2a"
    name: "res2a_branch2a"
    type: "Convolution"
    convolution_param {
        num_output: 64
        kernel_size: 1
        pad: 0
        stride: 1
        weight_filler {
            type: "msra"
        }
        bias_term: false

    }
    param {
        lr_mult: 0
    }
}

layer {
    bottom: "res2a_branch2a"
    top: "res2a_branch2a"
    name: "bn2a_branch2a"
    type: "BatchNorm"
    batch_norm_param {
        use_global_stats: false
    }
    param {
        lr_mult: 0
    }
    param {
        lr_mult: 0
    }
    param {
        lr_mult: 0
    }
}

layer {
    bottom: "res2a_branch2a"
    top: "res2a_branch2a"
    name: "scale2a_branch2a"
    type: "Scale"
    scale_param {
        bias_term: true
    }
    param {
        lr_mult: 0
    }
    param {
        lr_mult: 0
    }
}

layer {
    bottom: "res2a_branch2a"
    top: "res2a_branch2a"
    name: "res2a_branch2a_relu"
    type: "ReLU"
}

layer {
    bottom: "res2a_branch2a"
    top: "res2a_branch2b"
    name: "res2a_branch2b"
    type: "Convolution"
    convolution_param {
        num_output: 64
        kernel_size: 3
        pad: 1
        stride: 1
        weight_filler {
            type: "msra"
        }
        bias_term: false

    }
    param {
        lr_mult: 0
    }
}

layer {
    bottom: "res2a_branch2b"
    top: "res2a_branch2b"
    name: "bn2a_branch2b"
    type: "BatchNorm"
    batch_norm_param {
        use_global_stats: false
    }
    param {
        lr_mult: 0
    }
    param {
        lr_mult: 0
    }
    param {
        lr_mult: 0
    }
}

layer {
    bottom: "res2a_branch2b"
    top: "res2a_branch2b"
    name: "scale2a_branch2b"
    type: "Scale"
    scale_param {
        bias_term: true
    }
    param {
        lr_mult: 0
    }
    param {
        lr_mult: 0
    }
}

layer {
    bottom: "res2a_branch2b"
    top: "res2a_branch2b"
    name: "res2a_branch2b_relu"
    type: "ReLU"
}

layer {
    bottom: "res2a_branch2b"
    top: "res2a_branch2c"
    name: "res2a_branch2c"
    type: "Convolution"
    convolution_param {
        num_output: 256
        kernel_size: 1
        pad: 0
        stride: 1
        weight_filler {
            type: "msra"
        }
        bias_term: false

    }
    param {
        lr_mult: 0
    }
}

layer {
    bottom: "res2a_branch2c"
    top: "res2a_branch2c"
    name: "bn2a_branch2c"
    type: "BatchNorm"
    batch_norm_param {
        use_global_stats: false
    }
    param {
        lr_mult: 0
    }
    param {
        lr_mult: 0
    }
    param {
        lr_mult: 0
    }
}

layer {
    bottom: "res2a_branch2c"
    top: "res2a_branch2c"
    name: "scale2a_branch2c"
    type: "Scale"
    scale_param {
        bias_term: true
    }
    param {
        lr_mult: 0
    }
    param {
        lr_mult: 0
    }
}

layer {
    bottom: "res2a_branch1"
    bottom: "res2a_branch2c"
    top: "res2a"
    name: "res2a"
    type: "Eltwise"
    eltwise_param {
        operation: SUM
    }
}

layer {
    bottom: "res2a"
    top: "res2a"
    name: "res2a_relu"
    type: "ReLU"
}

layer {
    bottom: "res2a"
    top: "res2b_branch2a"
    name: "res2b_branch2a"
    type: "Convolution"
    convolution_param {
        num_output: 64
        kernel_size: 1
        pad: 0
        stride: 1
        weight_filler {
            type: "msra"
        }
        bias_term: false

    }
    param {
        lr_mult: 0
    }
}

layer {
    bottom: "res2b_branch2a"
    top: "res2b_branch2a"
    name: "bn2b_branch2a"
    type: "BatchNorm"
    batch_norm_param {
        use_global_stats: false
    }
    param {
        lr_mult: 0
    }
    param {
        lr_mult: 0
    }
    param {
        lr_mult: 0
    }
}

layer {
    bottom: "res2b_branch2a"
    top: "res2b_branch2a"
    name: "scale2b_branch2a"
    type: "Scale"
    scale_param {
        bias_term: true
    }
    param {
        lr_mult: 0
    }
    param {
        lr_mult: 0
    }
}

layer {
    bottom: "res2b_branch2a"
    top: "res2b_branch2a"
    name: "res2b_branch2a_relu"
    type: "ReLU"
}

layer {
    bottom: "res2b_branch2a"
    top: "res2b_branch2b"
    name: "res2b_branch2b"
    type: "Convolution"
    convolution_param {
        num_output: 64
        kernel_size: 3
        pad: 1
        stride: 1
        weight_filler {
            type: "msra"
        }
        bias_term: false

    }
    param {
        lr_mult: 0
    }
}

layer {
    bottom: "res2b_branch2b"
    top: "res2b_branch2b"
    name: "bn2b_branch2b"
    type: "BatchNorm"
    batch_norm_param {
        use_global_stats: false
    }
    param {
        lr_mult: 0
    }
    param {
        lr_mult: 0
    }
    param {
        lr_mult: 0
    }
}

layer {
    bottom: "res2b_branch2b"
    top: "res2b_branch2b"
    name: "scale2b_branch2b"
    type: "Scale"
    scale_param {
        bias_term: true
    }
    param {
        lr_mult: 0
    }
    param {
        lr_mult: 0
    }
}

layer {
    bottom: "res2b_branch2b"
    top: "res2b_branch2b"
    name: "res2b_branch2b_relu"
    type: "ReLU"
}

layer {
    bottom: "res2b_branch2b"
    top: "res2b_branch2c"
    name: "res2b_branch2c"
    type: "Convolution"
    convolution_param {
        num_output: 256
        kernel_size: 1
        pad: 0
        stride: 1
        weight_filler {
            type: "msra"
        }
        bias_term: false

    }
    param {
        lr_mult: 0
    }
}

layer {
    bottom: "res2b_branch2c"
    top: "res2b_branch2c"
    name: "bn2b_branch2c"
    type: "BatchNorm"
    batch_norm_param {
        use_global_stats: false
    }
    param {
        lr_mult: 0
    }
    param {
        lr_mult: 0
    }
    param {
        lr_mult: 0
    }
}

layer {
    bottom: "res2b_branch2c"
    top: "res2b_branch2c"
    name: "scale2b_branch2c"
    type: "Scale"
    scale_param {
        bias_term: true
    }
    param {
        lr_mult: 0
    }
    param {
        lr_mult: 0
    }
}

layer {
    bottom: "res2a"
    bottom: "res2b_branch2c"
    top: "res2b"
    name: "res2b"
    type: "Eltwise"
    eltwise_param {
        operation: SUM
    }
}

layer {
    bottom: "res2b"
    top: "res2b"
    name: "res2b_relu"
    type: "ReLU"
}

layer {
    bottom: "res2b"
    top: "res2c_branch2a"
    name: "res2c_branch2a"
    type: "Convolution"
    convolution_param {
        num_output: 64
        kernel_size: 1
        pad: 0
        stride: 1
        weight_filler {
            type: "msra"
        }
        bias_term: false

    }
    param {
        lr_mult: 0
    }
}

layer {
    bottom: "res2c_branch2a"
    top: "res2c_branch2a"
    name: "bn2c_branch2a"
    type: "BatchNorm"
    batch_norm_param {
        use_global_stats: false
    }
    param {
        lr_mult: 0
    }
    param {
        lr_mult: 0
    }
    param {
        lr_mult: 0
    }
}

layer {
    bottom: "res2c_branch2a"
    top: "res2c_branch2a"
    name: "scale2c_branch2a"
    type: "Scale"
    scale_param {
        bias_term: true
    }
    param {
        lr_mult: 0
    }
    param {
        lr_mult: 0
    }
}

layer {
    bottom: "res2c_branch2a"
    top: "res2c_branch2a"
    name: "res2c_branch2a_relu"
    type: "ReLU"
}

layer {
    bottom: "res2c_branch2a"
    top: "res2c_branch2b"
    name: "res2c_branch2b"
    type: "Convolution"
    convolution_param {
        num_output: 64
        kernel_size: 3
        pad: 1
        stride: 1
        weight_filler {
            type: "msra"
        }
        bias_term: false

    }
    param {
        lr_mult: 0
    }
}

layer {
    bottom: "res2c_branch2b"
    top: "res2c_branch2b"
    name: "bn2c_branch2b"
    type: "BatchNorm"
    batch_norm_param {
        use_global_stats: false
    }
    param {
        lr_mult: 0
    }
    param {
        lr_mult: 0
    }
    param {
        lr_mult: 0
    }
}

layer {
    bottom: "res2c_branch2b"
    top: "res2c_branch2b"
    name: "scale2c_branch2b"
    type: "Scale"
    scale_param {
        bias_term: true
    }
    param {
        lr_mult: 0
    }
    param {
        lr_mult: 0
    }
}

layer {
    bottom: "res2c_branch2b"
    top: "res2c_branch2b"
    name: "res2c_branch2b_relu"
    type: "ReLU"
}

layer {
    bottom: "res2c_branch2b"
    top: "res2c_branch2c"
    name: "res2c_branch2c"
    type: "Convolution"
    convolution_param {
        num_output: 256
        kernel_size: 1
        pad: 0
        stride: 1
        weight_filler {
            type: "msra"
        }
        bias_term: false

    }
    param {
        lr_mult: 0
    }
}

layer {
    bottom: "res2c_branch2c"
    top: "res2c_branch2c"
    name: "bn2c_branch2c"
    type: "BatchNorm"
    batch_norm_param {
        use_global_stats: false
    }
    param {
        lr_mult: 0
    }
    param {
        lr_mult: 0
    }
    param {
        lr_mult: 0
    }
}

layer {
    bottom: "res2c_branch2c"
    top: "res2c_branch2c"
    name: "scale2c_branch2c"
    type: "Scale"
    scale_param {
        bias_term: true
    }
    param {
        lr_mult: 0
    }
    param {
        lr_mult: 0
    }
}

layer {
    bottom: "res2b"
    bottom: "res2c_branch2c"
    top: "res2c"
    name: "res2c"
    type: "Eltwise"
    eltwise_param {
        operation: SUM
    }
}

layer {
    bottom: "res2c"
    top: "res2c"
    name: "res2c_relu"
    type: "ReLU"
}

layer {
    bottom: "res2c"
    top: "res3a_branch1"
    name: "res3a_branch1"
    type: "Convolution"
    convolution_param {
        num_output: 512
        kernel_size: 1
        pad: 0
        stride: 2
        weight_filler {
            type: "msra"
        }
        bias_term: false

    }
    param {
        lr_mult: 0
    }
}

layer {
    bottom: "res3a_branch1"
    top: "res3a_branch1"
    name: "bn3a_branch1"
    type: "BatchNorm"
    batch_norm_param {
        use_global_stats: false
    }
    param {
        lr_mult: 0
    }
    param {
        lr_mult: 0
    }
    param {
        lr_mult: 0
    }
}

layer {
    bottom: "res3a_branch1"
    top: "res3a_branch1"
    name: "scale3a_branch1"
    type: "Scale"
    scale_param {
        bias_term: true
    }
    param {
        lr_mult: 0
    }
    param {
        lr_mult: 0
    }
}

layer {
    bottom: "res2c"
    top: "res3a_branch2a"
    name: "res3a_branch2a"
    type: "Convolution"
    convolution_param {
        num_output: 128
        kernel_size: 1
        pad: 0
        stride: 2
        weight_filler {
            type: "msra"
        }
        bias_term: false

    }
    param {
        lr_mult: 0
    }
}

layer {
    bottom: "res3a_branch2a"
    top: "res3a_branch2a"
    name: "bn3a_branch2a"
    type: "BatchNorm"
    batch_norm_param {
        use_global_stats: false
    }
    param {
        lr_mult: 0
    }
    param {
        lr_mult: 0
    }
    param {
        lr_mult: 0
    }
}

layer {
    bottom: "res3a_branch2a"
    top: "res3a_branch2a"
    name: "scale3a_branch2a"
    type: "Scale"
    scale_param {
        bias_term: true
    }
    param {
        lr_mult: 0
    }
    param {
        lr_mult: 0
    }
}

layer {
    bottom: "res3a_branch2a"
    top: "res3a_branch2a"
    name: "res3a_branch2a_relu"
    type: "ReLU"
}

layer {
    bottom: "res3a_branch2a"
    top: "res3a_branch2b"
    name: "res3a_branch2b"
    type: "Convolution"
    convolution_param {
        num_output: 128
        kernel_size: 3
        pad: 1
        stride: 1
        weight_filler {
            type: "msra"
        }
        bias_term: false

    }
    param {
        lr_mult: 0
    }
}

layer {
    bottom: "res3a_branch2b"
    top: "res3a_branch2b"
    name: "bn3a_branch2b"
    type: "BatchNorm"
    batch_norm_param {
        use_global_stats: false
    }
    param {
        lr_mult: 0
    }
    param {
        lr_mult: 0
    }
    param {
        lr_mult: 0
    }
}

layer {
    bottom: "res3a_branch2b"
    top: "res3a_branch2b"
    name: "scale3a_branch2b"
    type: "Scale"
    scale_param {
        bias_term: true
    }
    param {
        lr_mult: 0
    }
    param {
        lr_mult: 0
    }
}

layer {
    bottom: "res3a_branch2b"
    top: "res3a_branch2b"
    name: "res3a_branch2b_relu"
    type: "ReLU"
}

layer {
    bottom: "res3a_branch2b"
    top: "res3a_branch2c"
    name: "res3a_branch2c"
    type: "Convolution"
    convolution_param {
        num_output: 512
        kernel_size: 1
        pad: 0
        stride: 1
        weight_filler {
            type: "msra"
        }
        bias_term: false

    }
    param {
        lr_mult: 0
    }
}

layer {
    bottom: "res3a_branch2c"
    top: "res3a_branch2c"
    name: "bn3a_branch2c"
    type: "BatchNorm"
    batch_norm_param {
        use_global_stats: false
    }
    param {
        lr_mult: 0
    }
    param {
        lr_mult: 0
    }
    param {
        lr_mult: 0
    }
}

layer {
    bottom: "res3a_branch2c"
    top: "res3a_branch2c"
    name: "scale3a_branch2c"
    type: "Scale"
    scale_param {
        bias_term: true
    }
    param {
        lr_mult: 0
    }
    param {
        lr_mult: 0
    }
}

layer {
    bottom: "res3a_branch1"
    bottom: "res3a_branch2c"
    top: "res3a"
    name: "res3a"
    type: "Eltwise"
    eltwise_param {
        operation: SUM
    }
}

layer {
    bottom: "res3a"
    top: "res3a"
    name: "res3a_relu"
    type: "ReLU"
}

layer {
    bottom: "res3a"
    top: "res3b1_branch2a"
    name: "res3b1_branch2a"
    type: "Convolution"
    convolution_param {
        num_output: 128
        kernel_size: 1
        pad: 0
        stride: 1
        weight_filler {
            type: "msra"
        }
        bias_term: false

    }
    param {
        lr_mult: 0
    }
}

layer {
    bottom: "res3b1_branch2a"
    top: "res3b1_branch2a"
    name: "bn3b1_branch2a"
    type: "BatchNorm"
    batch_norm_param {
        use_global_stats: false
    }
    param {
        lr_mult: 0
    }
    param {
        lr_mult: 0
    }
    param {
        lr_mult: 0
    }
}

layer {
    bottom: "res3b1_branch2a"
    top: "res3b1_branch2a"
    name: "scale3b1_branch2a"
    type: "Scale"
    scale_param {
        bias_term: true
    }
    param {
        lr_mult: 0
    }
    param {
        lr_mult: 0
    }
}

layer {
    bottom: "res3b1_branch2a"
    top: "res3b1_branch2a"
    name: "res3b1_branch2a_relu"
    type: "ReLU"
}

layer {
    bottom: "res3b1_branch2a"
    top: "res3b1_branch2b"
    name: "res3b1_branch2b"
    type: "Convolution"
    convolution_param {
        num_output: 128
        kernel_size: 3
        pad: 1
        stride: 1
        weight_filler {
            type: "msra"
        }
        bias_term: false

    }
    param {
        lr_mult: 0
    }
}

layer {
    bottom: "res3b1_branch2b"
    top: "res3b1_branch2b"
    name: "bn3b1_branch2b"
    type: "BatchNorm"
    batch_norm_param {
        use_global_stats: false
    }
    param {
        lr_mult: 0
    }
    param {
        lr_mult: 0
    }
    param {
        lr_mult: 0
    }
}

layer {
    bottom: "res3b1_branch2b"
    top: "res3b1_branch2b"
    name: "scale3b1_branch2b"
    type: "Scale"
    scale_param {
        bias_term: true
    }
    param {
        lr_mult: 0
    }
    param {
        lr_mult: 0
    }
}

layer {
    bottom: "res3b1_branch2b"
    top: "res3b1_branch2b"
    name: "res3b1_branch2b_relu"
    type: "ReLU"
}

layer {
    bottom: "res3b1_branch2b"
    top: "res3b1_branch2c"
    name: "res3b1_branch2c"
    type: "Convolution"
    convolution_param {
        num_output: 512
        kernel_size: 1
        pad: 0
        stride: 1
        weight_filler {
            type: "msra"
        }
        bias_term: false

    }
    param {
        lr_mult: 0
    }
}

layer {
    bottom: "res3b1_branch2c"
    top: "res3b1_branch2c"
    name: "bn3b1_branch2c"
    type: "BatchNorm"
    batch_norm_param {
        use_global_stats: false
    }
    param {
        lr_mult: 0
    }
    param {
        lr_mult: 0
    }
    param {
        lr_mult: 0
    }
}

layer {
    bottom: "res3b1_branch2c"
    top: "res3b1_branch2c"
    name: "scale3b1_branch2c"
    type: "Scale"
    scale_param {
        bias_term: true
    }
    param {
        lr_mult: 0
    }
    param {
        lr_mult: 0
    }
}

layer {
    bottom: "res3a"
    bottom: "res3b1_branch2c"
    top: "res3b1"
    name: "res3b1"
    type: "Eltwise"
    eltwise_param {
        operation: SUM
    }
}

layer {
    bottom: "res3b1"
    top: "res3b1"
    name: "res3b1_relu"
    type: "ReLU"
}

layer {
    bottom: "res3b1"
    top: "res3b2_branch2a"
    name: "res3b2_branch2a"
    type: "Convolution"
    convolution_param {
        num_output: 128
        kernel_size: 1
        pad: 0
        stride: 1
        weight_filler {
            type: "msra"
        }
        bias_term: false

    }
    param {
        lr_mult: 0
    }
}

layer {
    bottom: "res3b2_branch2a"
    top: "res3b2_branch2a"
    name: "bn3b2_branch2a"
    type: "BatchNorm"
    batch_norm_param {
        use_global_stats: false
    }
    param {
        lr_mult: 0
    }
    param {
        lr_mult: 0
    }
    param {
        lr_mult: 0
    }
}

layer {
    bottom: "res3b2_branch2a"
    top: "res3b2_branch2a"
    name: "scale3b2_branch2a"
    type: "Scale"
    scale_param {
        bias_term: true
    }
    param {
        lr_mult: 0
    }
    param {
        lr_mult: 0
    }
}

layer {
    bottom: "res3b2_branch2a"
    top: "res3b2_branch2a"
    name: "res3b2_branch2a_relu"
    type: "ReLU"
}

layer {
    bottom: "res3b2_branch2a"
    top: "res3b2_branch2b"
    name: "res3b2_branch2b"
    type: "Convolution"
    convolution_param {
        num_output: 128
        kernel_size: 3
        pad: 1
        stride: 1
        weight_filler {
            type: "msra"
        }
        bias_term: false

    }
    param {
        lr_mult: 0
    }
}

layer {
    bottom: "res3b2_branch2b"
    top: "res3b2_branch2b"
    name: "bn3b2_branch2b"
    type: "BatchNorm"
    batch_norm_param {
        use_global_stats: false
    }
    param {
        lr_mult: 0
    }
    param {
        lr_mult: 0
    }
    param {
        lr_mult: 0
    }
}

layer {
    bottom: "res3b2_branch2b"
    top: "res3b2_branch2b"
    name: "scale3b2_branch2b"
    type: "Scale"
    scale_param {
        bias_term: true
    }
    param {
        lr_mult: 0
    }
    param {
        lr_mult: 0
    }
}

layer {
    bottom: "res3b2_branch2b"
    top: "res3b2_branch2b"
    name: "res3b2_branch2b_relu"
    type: "ReLU"
}

layer {
    bottom: "res3b2_branch2b"
    top: "res3b2_branch2c"
    name: "res3b2_branch2c"
    type: "Convolution"
    convolution_param {
        num_output: 512
        kernel_size: 1
        pad: 0
        stride: 1
        weight_filler {
            type: "msra"
        }
        bias_term: false

    }
    param {
        lr_mult: 0
    }
}

layer {
    bottom: "res3b2_branch2c"
    top: "res3b2_branch2c"
    name: "bn3b2_branch2c"
    type: "BatchNorm"
    batch_norm_param {
        use_global_stats: false
    }
    param {
        lr_mult: 0
    }
    param {
        lr_mult: 0
    }
    param {
        lr_mult: 0
    }
}

layer {
    bottom: "res3b2_branch2c"
    top: "res3b2_branch2c"
    name: "scale3b2_branch2c"
    type: "Scale"
    scale_param {
        bias_term: true
    }
    param {
        lr_mult: 0
    }
    param {
        lr_mult: 0
    }
}

layer {
    bottom: "res3b1"
    bottom: "res3b2_branch2c"
    top: "res3b2"
    name: "res3b2"
    type: "Eltwise"
    eltwise_param {
        operation: SUM
    }
}

layer {
    bottom: "res3b2"
    top: "res3b2"
    name: "res3b2_relu"
    type: "ReLU"
}

layer {
    bottom: "res3b2"
    top: "res3b3_branch2a"
    name: "res3b3_branch2a"
    type: "Convolution"
    convolution_param {
        num_output: 128
        kernel_size: 1
        pad: 0
        stride: 1
        weight_filler {
            type: "msra"
        }
        bias_term: false

    }
    param {
        lr_mult: 0
    }
}

layer {
    bottom: "res3b3_branch2a"
    top: "res3b3_branch2a"
    name: "bn3b3_branch2a"
    type: "BatchNorm"
    batch_norm_param {
        use_global_stats: false
    }
    param {
        lr_mult: 0
    }
    param {
        lr_mult: 0
    }
    param {
        lr_mult: 0
    }
}

layer {
    bottom: "res3b3_branch2a"
    top: "res3b3_branch2a"
    name: "scale3b3_branch2a"
    type: "Scale"
    scale_param {
        bias_term: true
    }
    param {
        lr_mult: 0
    }
    param {
        lr_mult: 0
    }
}

layer {
    bottom: "res3b3_branch2a"
    top: "res3b3_branch2a"
    name: "res3b3_branch2a_relu"
    type: "ReLU"
}

layer {
    bottom: "res3b3_branch2a"
    top: "res3b3_branch2b"
    name: "res3b3_branch2b"
    type: "Convolution"
    convolution_param {
        num_output: 128
        kernel_size: 3
        pad: 1
        stride: 1
        weight_filler {
            type: "msra"
        }
        bias_term: false

    }
    param {
        lr_mult: 0
    }
}

layer {
    bottom: "res3b3_branch2b"
    top: "res3b3_branch2b"
    name: "bn3b3_branch2b"
    type: "BatchNorm"
    batch_norm_param {
        use_global_stats: false
    }
    param {
        lr_mult: 0
    }
    param {
        lr_mult: 0
    }
    param {
        lr_mult: 0
    }
}

layer {
    bottom: "res3b3_branch2b"
    top: "res3b3_branch2b"
    name: "scale3b3_branch2b"
    type: "Scale"
    scale_param {
        bias_term: true
    }
    param {
        lr_mult: 0
    }
    param {
        lr_mult: 0
    }
}

layer {
    bottom: "res3b3_branch2b"
    top: "res3b3_branch2b"
    name: "res3b3_branch2b_relu"
    type: "ReLU"
}

layer {
    bottom: "res3b3_branch2b"
    top: "res3b3_branch2c"
    name: "res3b3_branch2c"
    type: "Convolution"
    convolution_param {
        num_output: 512
        kernel_size: 1
        pad: 0
        stride: 1
        weight_filler {
            type: "msra"
        }
        bias_term: false

    }
    param {
        lr_mult: 0
    }
}

layer {
    bottom: "res3b3_branch2c"
    top: "res3b3_branch2c"
    name: "bn3b3_branch2c"
    type: "BatchNorm"
    batch_norm_param {
        use_global_stats: false
    }
    param {
        lr_mult: 0
    }
    param {
        lr_mult: 0
    }
    param {
        lr_mult: 0
    }
}

layer {
    bottom: "res3b3_branch2c"
    top: "res3b3_branch2c"
    name: "scale3b3_branch2c"
    type: "Scale"
    scale_param {
        bias_term: true
    }
    param {
        lr_mult: 0
    }
    param {
        lr_mult: 0
    }
}

layer {
    bottom: "res3b2"
    bottom: "res3b3_branch2c"
    top: "res3b3"
    name: "res3b3"
    type: "Eltwise"
    eltwise_param {
        operation: SUM
    }
}

layer {
    bottom: "res3b3"
    top: "res3b3"
    name: "res3b3_relu"
    type: "ReLU"
}

layer {
    bottom: "res3b3"
    top: "res4a_branch1"
    name: "res4a_branch1"
    type: "Convolution"
    convolution_param {
        num_output: 1024
        kernel_size: 1
        pad: 0
        stride: 2
        weight_filler {
            type: "msra"
        }
        bias_term: false

    }
    param {
        lr_mult: 0
    }
}

layer {
    bottom: "res4a_branch1"
    top: "res4a_branch1"
    name: "bn4a_branch1"
    type: "BatchNorm"
    batch_norm_param {
        use_global_stats: false
    }
    param {
        lr_mult: 0
    }
    param {
        lr_mult: 0
    }
    param {
        lr_mult: 0
    }
}

layer {
    bottom: "res4a_branch1"
    top: "res4a_branch1"
    name: "scale4a_branch1"
    type: "Scale"
    scale_param {
        bias_term: true
    }
    param {
        lr_mult: 0
    }
    param {
        lr_mult: 0
    }
}

layer {
    bottom: "res3b3"
    top: "res4a_branch2a"
    name: "res4a_branch2a"
    type: "Convolution"
    convolution_param {
        num_output: 256
        kernel_size: 1
        pad: 0
        stride: 2
        weight_filler {
            type: "msra"
        }
        bias_term: false

    }
    param {
        lr_mult: 0
    }
}

layer {
    bottom: "res4a_branch2a"
    top: "res4a_branch2a"
    name: "bn4a_branch2a"
    type: "BatchNorm"
    batch_norm_param {
        use_global_stats: false
    }
    param {
        lr_mult: 0
    }
    param {
        lr_mult: 0
    }
    param {
        lr_mult: 0
    }
}

layer {
    bottom: "res4a_branch2a"
    top: "res4a_branch2a"
    name: "scale4a_branch2a"
    type: "Scale"
    scale_param {
        bias_term: true
    }
    param {
        lr_mult: 0
    }
    param {
        lr_mult: 0
    }
}

layer {
    bottom: "res4a_branch2a"
    top: "res4a_branch2a"
    name: "res4a_branch2a_relu"
    type: "ReLU"
}

layer {
    bottom: "res4a_branch2a"
    top: "res4a_branch2b"
    name: "res4a_branch2b"
    type: "Convolution"
    convolution_param {
        num_output: 256
        kernel_size: 3
        pad: 1
        stride: 1
        weight_filler {
            type: "msra"
        }
        bias_term: false

    }
    param {
        lr_mult: 0
    }
}

layer {
    bottom: "res4a_branch2b"
    top: "res4a_branch2b"
    name: "bn4a_branch2b"
    type: "BatchNorm"
    batch_norm_param {
        use_global_stats: false
    }
    param {
        lr_mult: 0
    }
    param {
        lr_mult: 0
    }
    param {
        lr_mult: 0
    }
}

layer {
    bottom: "res4a_branch2b"
    top: "res4a_branch2b"
    name: "scale4a_branch2b"
    type: "Scale"
    scale_param {
        bias_term: true
    }
    param {
        lr_mult: 0
    }
    param {
        lr_mult: 0
    }
}

layer {
    bottom: "res4a_branch2b"
    top: "res4a_branch2b"
    name: "res4a_branch2b_relu"
    type: "ReLU"
}

layer {
    bottom: "res4a_branch2b"
    top: "res4a_branch2c"
    name: "res4a_branch2c"
    type: "Convolution"
    convolution_param {
        num_output: 1024
        kernel_size: 1
        pad: 0
        stride: 1
        weight_filler {
            type: "msra"
        }
        bias_term: false

    }
    param {
        lr_mult: 0
    }
}

layer {
    bottom: "res4a_branch2c"
    top: "res4a_branch2c"
    name: "bn4a_branch2c"
    type: "BatchNorm"
    batch_norm_param {
        use_global_stats: false
    }
    param {
        lr_mult: 0
    }
    param {
        lr_mult: 0
    }
    param {
        lr_mult: 0
    }
}

layer {
    bottom: "res4a_branch2c"
    top: "res4a_branch2c"
    name: "scale4a_branch2c"
    type: "Scale"
    scale_param {
        bias_term: true
    }
    param {
        lr_mult: 0
    }
    param {
        lr_mult: 0
    }
}

layer {
    bottom: "res4a_branch1"
    bottom: "res4a_branch2c"
    top: "res4a"
    name: "res4a"
    type: "Eltwise"
    eltwise_param {
        operation: SUM
    }
}

layer {
    bottom: "res4a"
    top: "res4a"
    name: "res4a_relu"
    type: "ReLU"
}

layer {
    bottom: "res4a"
    top: "res4b1_branch2a"
    name: "res4b1_branch2a"
    type: "Convolution"
    convolution_param {
        num_output: 256
        kernel_size: 1
        pad: 0
        stride: 1
        weight_filler {
            type: "msra"
        }
        bias_term: false

    }
    param {
        lr_mult: 0
    }
}

layer {
    bottom: "res4b1_branch2a"
    top: "res4b1_branch2a"
    name: "bn4b1_branch2a"
    type: "BatchNorm"
    batch_norm_param {
        use_global_stats: false
    }
    param {
        lr_mult: 0
    }
    param {
        lr_mult: 0
    }
    param {
        lr_mult: 0
    }
}

layer {
    bottom: "res4b1_branch2a"
    top: "res4b1_branch2a"
    name: "scale4b1_branch2a"
    type: "Scale"
    scale_param {
        bias_term: true
    }
    param {
        lr_mult: 0
    }
    param {
        lr_mult: 0
    }
}

layer {
    bottom: "res4b1_branch2a"
    top: "res4b1_branch2a"
    name: "res4b1_branch2a_relu"
    type: "ReLU"
}

layer {
    bottom: "res4b1_branch2a"
    top: "res4b1_branch2b"
    name: "res4b1_branch2b"
    type: "Convolution"
    convolution_param {
        num_output: 256
        kernel_size: 3
        pad: 1
        stride: 1
        weight_filler {
            type: "msra"
        }
        bias_term: false

    }
    param {
        lr_mult: 0
    }
}

layer {
    bottom: "res4b1_branch2b"
    top: "res4b1_branch2b"
    name: "bn4b1_branch2b"
    type: "BatchNorm"
    batch_norm_param {
        use_global_stats: false
    }
    param {
        lr_mult: 0
    }
    param {
        lr_mult: 0
    }
    param {
        lr_mult: 0
    }
}

layer {
    bottom: "res4b1_branch2b"
    top: "res4b1_branch2b"
    name: "scale4b1_branch2b"
    type: "Scale"
    scale_param {
        bias_term: true
    }
    param {
        lr_mult: 0
    }
    param {
        lr_mult: 0
    }
}

layer {
    bottom: "res4b1_branch2b"
    top: "res4b1_branch2b"
    name: "res4b1_branch2b_relu"
    type: "ReLU"
}

layer {
    bottom: "res4b1_branch2b"
    top: "res4b1_branch2c"
    name: "res4b1_branch2c"
    type: "Convolution"
    convolution_param {
        num_output: 1024
        kernel_size: 1
        pad: 0
        stride: 1
        weight_filler {
            type: "msra"
        }
        bias_term: false

    }
    param {
        lr_mult: 0
    }
}

layer {
    bottom: "res4b1_branch2c"
    top: "res4b1_branch2c"
    name: "bn4b1_branch2c"
    type: "BatchNorm"
    batch_norm_param {
        use_global_stats: false
    }
    param {
        lr_mult: 0
    }
    param {
        lr_mult: 0
    }
    param {
        lr_mult: 0
    }
}

layer {
    bottom: "res4b1_branch2c"
    top: "res4b1_branch2c"
    name: "scale4b1_branch2c"
    type: "Scale"
    scale_param {
        bias_term: true
    }
    param {
        lr_mult: 0
    }
    param {
        lr_mult: 0
    }
}

layer {
    bottom: "res4a"
    bottom: "res4b1_branch2c"
    top: "res4b1"
    name: "res4b1"
    type: "Eltwise"
    eltwise_param {
        operation: SUM
    }
}

layer {
    bottom: "res4b1"
    top: "res4b1"
    name: "res4b1_relu"
    type: "ReLU"
}

layer {
    bottom: "res4b1"
    top: "res4b2_branch2a"
    name: "res4b2_branch2a"
    type: "Convolution"
    convolution_param {
        num_output: 256
        kernel_size: 1
        pad: 0
        stride: 1
        weight_filler {
            type: "msra"
        }
        bias_term: false

    }
    param {
        lr_mult: 0
    }
}

layer {
    bottom: "res4b2_branch2a"
    top: "res4b2_branch2a"
    name: "bn4b2_branch2a"
    type: "BatchNorm"
    batch_norm_param {
        use_global_stats: false
    }
    param {
        lr_mult: 0
    }
    param {
        lr_mult: 0
    }
    param {
        lr_mult: 0
    }
}

layer {
    bottom: "res4b2_branch2a"
    top: "res4b2_branch2a"
    name: "scale4b2_branch2a"
    type: "Scale"
    scale_param {
        bias_term: true
    }
    param {
        lr_mult: 0
    }
    param {
        lr_mult: 0
    }
}

layer {
    bottom: "res4b2_branch2a"
    top: "res4b2_branch2a"
    name: "res4b2_branch2a_relu"
    type: "ReLU"
}

layer {
    bottom: "res4b2_branch2a"
    top: "res4b2_branch2b"
    name: "res4b2_branch2b"
    type: "Convolution"
    convolution_param {
        num_output: 256
        kernel_size: 3
        pad: 1
        stride: 1
        weight_filler {
            type: "msra"
        }
        bias_term: false

    }
    param {
        lr_mult: 0
    }
}

layer {
    bottom: "res4b2_branch2b"
    top: "res4b2_branch2b"
    name: "bn4b2_branch2b"
    type: "BatchNorm"
    batch_norm_param {
        use_global_stats: false
    }
    param {
        lr_mult: 0
    }
    param {
        lr_mult: 0
    }
    param {
        lr_mult: 0
    }
}

layer {
    bottom: "res4b2_branch2b"
    top: "res4b2_branch2b"
    name: "scale4b2_branch2b"
    type: "Scale"
    scale_param {
        bias_term: true
    }
    param {
        lr_mult: 0
    }
    param {
        lr_mult: 0
    }
}

layer {
    bottom: "res4b2_branch2b"
    top: "res4b2_branch2b"
    name: "res4b2_branch2b_relu"
    type: "ReLU"
}

layer {
    bottom: "res4b2_branch2b"
    top: "res4b2_branch2c"
    name: "res4b2_branch2c"
    type: "Convolution"
    convolution_param {
        num_output: 1024
        kernel_size: 1
        pad: 0
        stride: 1
        weight_filler {
            type: "msra"
        }
        bias_term: false

    }
    param {
        lr_mult: 0
    }
}

layer {
    bottom: "res4b2_branch2c"
    top: "res4b2_branch2c"
    name: "bn4b2_branch2c"
    type: "BatchNorm"
    batch_norm_param {
        use_global_stats: false
    }
    param {
        lr_mult: 0
    }
    param {
        lr_mult: 0
    }
    param {
        lr_mult: 0
    }
}

layer {
    bottom: "res4b2_branch2c"
    top: "res4b2_branch2c"
    name: "scale4b2_branch2c"
    type: "Scale"
    scale_param {
        bias_term: true
    }
    param {
        lr_mult: 0
    }
    param {
        lr_mult: 0
    }
}

layer {
    bottom: "res4b1"
    bottom: "res4b2_branch2c"
    top: "res4b2"
    name: "res4b2"
    type: "Eltwise"
    eltwise_param {
        operation: SUM
    }
}

layer {
    bottom: "res4b2"
    top: "res4b2"
    name: "res4b2_relu"
    type: "ReLU"
}

layer {
    bottom: "res4b2"
    top: "res4b3_branch2a"
    name: "res4b3_branch2a"
    type: "Convolution"
    convolution_param {
        num_output: 256
        kernel_size: 1
        pad: 0
        stride: 1
        weight_filler {
            type: "msra"
        }
        bias_term: false

    }
    param {
        lr_mult: 0
    }
}

layer {
    bottom: "res4b3_branch2a"
    top: "res4b3_branch2a"
    name: "bn4b3_branch2a"
    type: "BatchNorm"
    batch_norm_param {
        use_global_stats: false
    }
    param {
        lr_mult: 0
    }
    param {
        lr_mult: 0
    }
    param {
        lr_mult: 0
    }
}

layer {
    bottom: "res4b3_branch2a"
    top: "res4b3_branch2a"
    name: "scale4b3_branch2a"
    type: "Scale"
    scale_param {
        bias_term: true
    }
    param {
        lr_mult: 0
    }
    param {
        lr_mult: 0
    }
}

layer {
    bottom: "res4b3_branch2a"
    top: "res4b3_branch2a"
    name: "res4b3_branch2a_relu"
    type: "ReLU"
}

layer {
    bottom: "res4b3_branch2a"
    top: "res4b3_branch2b"
    name: "res4b3_branch2b"
    type: "Convolution"
    convolution_param {
        num_output: 256
        kernel_size: 3
        pad: 1
        stride: 1
        weight_filler {
            type: "msra"
        }
        bias_term: false

    }
    param {
        lr_mult: 0
    }
}

layer {
    bottom: "res4b3_branch2b"
    top: "res4b3_branch2b"
    name: "bn4b3_branch2b"
    type: "BatchNorm"
    batch_norm_param {
        use_global_stats: false
    }
    param {
        lr_mult: 0
    }
    param {
        lr_mult: 0
    }
    param {
        lr_mult: 0
    }
}

layer {
    bottom: "res4b3_branch2b"
    top: "res4b3_branch2b"
    name: "scale4b3_branch2b"
    type: "Scale"
    scale_param {
        bias_term: true
    }
    param {
        lr_mult: 0
    }
    param {
        lr_mult: 0
    }
}

layer {
    bottom: "res4b3_branch2b"
    top: "res4b3_branch2b"
    name: "res4b3_branch2b_relu"
    type: "ReLU"
}

layer {
    bottom: "res4b3_branch2b"
    top: "res4b3_branch2c"
    name: "res4b3_branch2c"
    type: "Convolution"
    convolution_param {
        num_output: 1024
        kernel_size: 1
        pad: 0
        stride: 1
        weight_filler {
            type: "msra"
        }
        bias_term: false

    }
    param {
        lr_mult: 0
    }
}

layer {
    bottom: "res4b3_branch2c"
    top: "res4b3_branch2c"
    name: "bn4b3_branch2c"
    type: "BatchNorm"
    batch_norm_param {
        use_global_stats: false
    }
    param {
        lr_mult: 0
    }
    param {
        lr_mult: 0
    }
    param {
        lr_mult: 0
    }
}

layer {
    bottom: "res4b3_branch2c"
    top: "res4b3_branch2c"
    name: "scale4b3_branch2c"
    type: "Scale"
    scale_param {
        bias_term: true
    }
    param {
        lr_mult: 0
    }
    param {
        lr_mult: 0
    }
}

layer {
    bottom: "res4b2"
    bottom: "res4b3_branch2c"
    top: "res4b3"
    name: "res4b3"
    type: "Eltwise"
    eltwise_param {
        operation: SUM
    }
}

layer {
    bottom: "res4b3"
    top: "res4b3"
    name: "res4b3_relu"
    type: "ReLU"
}

layer {
    bottom: "res4b3"
    top: "res4b4_branch2a"
    name: "res4b4_branch2a"
    type: "Convolution"
    convolution_param {
        num_output: 256
        kernel_size: 1
        pad: 0
        stride: 1
        weight_filler {
            type: "msra"
        }
        bias_term: false

    }
    param {
        lr_mult: 0
    }
}

layer {
    bottom: "res4b4_branch2a"
    top: "res4b4_branch2a"
    name: "bn4b4_branch2a"
    type: "BatchNorm"
    batch_norm_param {
        use_global_stats: false
    }
    param {
        lr_mult: 0
    }
    param {
        lr_mult: 0
    }
    param {
        lr_mult: 0
    }
}

layer {
    bottom: "res4b4_branch2a"
    top: "res4b4_branch2a"
    name: "scale4b4_branch2a"
    type: "Scale"
    scale_param {
        bias_term: true
    }
    param {
        lr_mult: 0
    }
    param {
        lr_mult: 0
    }
}

layer {
    bottom: "res4b4_branch2a"
    top: "res4b4_branch2a"
    name: "res4b4_branch2a_relu"
    type: "ReLU"
}

layer {
    bottom: "res4b4_branch2a"
    top: "res4b4_branch2b"
    name: "res4b4_branch2b"
    type: "Convolution"
    convolution_param {
        num_output: 256
        kernel_size: 3
        pad: 1
        stride: 1
        weight_filler {
            type: "msra"
        }
        bias_term: false

    }
    param {
        lr_mult: 0
    }
}

layer {
    bottom: "res4b4_branch2b"
    top: "res4b4_branch2b"
    name: "bn4b4_branch2b"
    type: "BatchNorm"
    batch_norm_param {
        use_global_stats: false
    }
    param {
        lr_mult: 0
    }
    param {
        lr_mult: 0
    }
    param {
        lr_mult: 0
    }
}

layer {
    bottom: "res4b4_branch2b"
    top: "res4b4_branch2b"
    name: "scale4b4_branch2b"
    type: "Scale"
    scale_param {
        bias_term: true
    }
    param {
        lr_mult: 0
    }
    param {
        lr_mult: 0
    }
}

layer {
    bottom: "res4b4_branch2b"
    top: "res4b4_branch2b"
    name: "res4b4_branch2b_relu"
    type: "ReLU"
}

layer {
    bottom: "res4b4_branch2b"
    top: "res4b4_branch2c"
    name: "res4b4_branch2c"
    type: "Convolution"
    convolution_param {
        num_output: 1024
        kernel_size: 1
        pad: 0
        stride: 1
        weight_filler {
            type: "msra"
        }
        bias_term: false

    }
    param {
        lr_mult: 0
    }
}

layer {
    bottom: "res4b4_branch2c"
    top: "res4b4_branch2c"
    name: "bn4b4_branch2c"
    type: "BatchNorm"
    batch_norm_param {
        use_global_stats: false
    }
    param {
        lr_mult: 0
    }
    param {
        lr_mult: 0
    }
    param {
        lr_mult: 0
    }
}

layer {
    bottom: "res4b4_branch2c"
    top: "res4b4_branch2c"
    name: "scale4b4_branch2c"
    type: "Scale"
    scale_param {
        bias_term: true
    }
    param {
        lr_mult: 0
    }
    param {
        lr_mult: 0
    }
}

layer {
    bottom: "res4b3"
    bottom: "res4b4_branch2c"
    top: "res4b4"
    name: "res4b4"
    type: "Eltwise"
    eltwise_param {
        operation: SUM
    }
}

layer {
    bottom: "res4b4"
    top: "res4b4"
    name: "res4b4_relu"
    type: "ReLU"
}

layer {
    bottom: "res4b4"
    top: "res4b5_branch2a"
    name: "res4b5_branch2a"
    type: "Convolution"
    convolution_param {
        num_output: 256
        kernel_size: 1
        pad: 0
        stride: 1
        weight_filler {
            type: "msra"
        }
        bias_term: false

    }
    param {
        lr_mult: 0
    }
}

layer {
    bottom: "res4b5_branch2a"
    top: "res4b5_branch2a"
    name: "bn4b5_branch2a"
    type: "BatchNorm"
    batch_norm_param {
        use_global_stats: false
    }
    param {
        lr_mult: 0
    }
    param {
        lr_mult: 0
    }
    param {
        lr_mult: 0
    }
}

layer {
    bottom: "res4b5_branch2a"
    top: "res4b5_branch2a"
    name: "scale4b5_branch2a"
    type: "Scale"
    scale_param {
        bias_term: true
    }
    param {
        lr_mult: 0
    }
    param {
        lr_mult: 0
    }
}

layer {
    bottom: "res4b5_branch2a"
    top: "res4b5_branch2a"
    name: "res4b5_branch2a_relu"
    type: "ReLU"
}

layer {
    bottom: "res4b5_branch2a"
    top: "res4b5_branch2b"
    name: "res4b5_branch2b"
    type: "Convolution"
    convolution_param {
        num_output: 256
        kernel_size: 3
        pad: 1
        stride: 1
        weight_filler {
            type: "msra"
        }
        bias_term: false

    }
    param {
        lr_mult: 0
    }
}

layer {
    bottom: "res4b5_branch2b"
    top: "res4b5_branch2b"
    name: "bn4b5_branch2b"
    type: "BatchNorm"
    batch_norm_param {
        use_global_stats: false
    }
    param {
        lr_mult: 0
    }
    param {
        lr_mult: 0
    }
    param {
        lr_mult: 0
    }
}

layer {
    bottom: "res4b5_branch2b"
    top: "res4b5_branch2b"
    name: "scale4b5_branch2b"
    type: "Scale"
    scale_param {
        bias_term: true
    }
    param {
        lr_mult: 0
    }
    param {
        lr_mult: 0
    }
}

layer {
    bottom: "res4b5_branch2b"
    top: "res4b5_branch2b"
    name: "res4b5_branch2b_relu"
    type: "ReLU"
}

layer {
    bottom: "res4b5_branch2b"
    top: "res4b5_branch2c"
    name: "res4b5_branch2c"
    type: "Convolution"
    convolution_param {
        num_output: 1024
        kernel_size: 1
        pad: 0
        stride: 1
        weight_filler {
            type: "msra"
        }
        bias_term: false

    }
    param {
        lr_mult: 0
    }
}

layer {
    bottom: "res4b5_branch2c"
    top: "res4b5_branch2c"
    name: "bn4b5_branch2c"
    type: "BatchNorm"
    batch_norm_param {
        use_global_stats: false
    }
    param {
        lr_mult: 0
    }
    param {
        lr_mult: 0
    }
    param {
        lr_mult: 0
    }
}

layer {
    bottom: "res4b5_branch2c"
    top: "res4b5_branch2c"
    name: "scale4b5_branch2c"
    type: "Scale"
    scale_param {
        bias_term: true
    }
    param {
        lr_mult: 0
    }
    param {
        lr_mult: 0
    }
}

layer {
    bottom: "res4b4"
    bottom: "res4b5_branch2c"
    top: "res4b5"
    name: "res4b5"
    type: "Eltwise"
    eltwise_param {
        operation: SUM
    }
}

layer {
    bottom: "res4b5"
    top: "res4b5"
    name: "res4b5_relu"
    type: "ReLU"
}

layer {
    bottom: "res4b5"
    top: "res4b6_branch2a"
    name: "res4b6_branch2a"
    type: "Convolution"
    convolution_param {
        num_output: 256
        kernel_size: 1
        pad: 0
        stride: 1
        weight_filler {
            type: "msra"
        }
        bias_term: false

    }
    param {
        lr_mult: 0
    }
}

layer {
    bottom: "res4b6_branch2a"
    top: "res4b6_branch2a"
    name: "bn4b6_branch2a"
    type: "BatchNorm"
    batch_norm_param {
        use_global_stats: false
    }
    param {
        lr_mult: 0
    }
    param {
        lr_mult: 0
    }
    param {
        lr_mult: 0
    }
}

layer {
    bottom: "res4b6_branch2a"
    top: "res4b6_branch2a"
    name: "scale4b6_branch2a"
    type: "Scale"
    scale_param {
        bias_term: true
    }
    param {
        lr_mult: 0
    }
    param {
        lr_mult: 0
    }
}

layer {
    bottom: "res4b6_branch2a"
    top: "res4b6_branch2a"
    name: "res4b6_branch2a_relu"
    type: "ReLU"
}

layer {
    bottom: "res4b6_branch2a"
    top: "res4b6_branch2b"
    name: "res4b6_branch2b"
    type: "Convolution"
    convolution_param {
        num_output: 256
        kernel_size: 3
        pad: 1
        stride: 1
        weight_filler {
            type: "msra"
        }
        bias_term: false

    }
    param {
        lr_mult: 0
    }
}

layer {
    bottom: "res4b6_branch2b"
    top: "res4b6_branch2b"
    name: "bn4b6_branch2b"
    type: "BatchNorm"
    batch_norm_param {
        use_global_stats: false
    }
    param {
        lr_mult: 0
    }
    param {
        lr_mult: 0
    }
    param {
        lr_mult: 0
    }
}

layer {
    bottom: "res4b6_branch2b"
    top: "res4b6_branch2b"
    name: "scale4b6_branch2b"
    type: "Scale"
    scale_param {
        bias_term: true
    }
    param {
        lr_mult: 0
    }
    param {
        lr_mult: 0
    }
}

layer {
    bottom: "res4b6_branch2b"
    top: "res4b6_branch2b"
    name: "res4b6_branch2b_relu"
    type: "ReLU"
}

layer {
    bottom: "res4b6_branch2b"
    top: "res4b6_branch2c"
    name: "res4b6_branch2c"
    type: "Convolution"
    convolution_param {
        num_output: 1024
        kernel_size: 1
        pad: 0
        stride: 1
        weight_filler {
            type: "msra"
        }
        bias_term: false

    }
    param {
        lr_mult: 0
    }
}

layer {
    bottom: "res4b6_branch2c"
    top: "res4b6_branch2c"
    name: "bn4b6_branch2c"
    type: "BatchNorm"
    batch_norm_param {
        use_global_stats: false
    }
    param {
        lr_mult: 0
    }
    param {
        lr_mult: 0
    }
    param {
        lr_mult: 0
    }
}

layer {
    bottom: "res4b6_branch2c"
    top: "res4b6_branch2c"
    name: "scale4b6_branch2c"
    type: "Scale"
    scale_param {
        bias_term: true
    }
    param {
        lr_mult: 0
    }
    param {
        lr_mult: 0
    }
}

layer {
    bottom: "res4b5"
    bottom: "res4b6_branch2c"
    top: "res4b6"
    name: "res4b6"
    type: "Eltwise"
    eltwise_param {
        operation: SUM
    }
}

layer {
    bottom: "res4b6"
    top: "res4b6"
    name: "res4b6_relu"
    type: "ReLU"
}

layer {
    bottom: "res4b6"
    top: "res4b7_branch2a"
    name: "res4b7_branch2a"
    type: "Convolution"
    convolution_param {
        num_output: 256
        kernel_size: 1
        pad: 0
        stride: 1
        weight_filler {
            type: "msra"
        }
        bias_term: false

    }
    param {
        lr_mult: 0
    }
}

layer {
    bottom: "res4b7_branch2a"
    top: "res4b7_branch2a"
    name: "bn4b7_branch2a"
    type: "BatchNorm"
    batch_norm_param {
        use_global_stats: false
    }
    param {
        lr_mult: 0
    }
    param {
        lr_mult: 0
    }
    param {
        lr_mult: 0
    }
}

layer {
    bottom: "res4b7_branch2a"
    top: "res4b7_branch2a"
    name: "scale4b7_branch2a"
    type: "Scale"
    scale_param {
        bias_term: true
    }
    param {
        lr_mult: 0
    }
    param {
        lr_mult: 0
    }
}

layer {
    bottom: "res4b7_branch2a"
    top: "res4b7_branch2a"
    name: "res4b7_branch2a_relu"
    type: "ReLU"
}

layer {
    bottom: "res4b7_branch2a"
    top: "res4b7_branch2b"
    name: "res4b7_branch2b"
    type: "Convolution"
    convolution_param {
        num_output: 256
        kernel_size: 3
        pad: 1
        stride: 1
        weight_filler {
            type: "msra"
        }
        bias_term: false

    }
    param {
        lr_mult: 0
    }
}

layer {
    bottom: "res4b7_branch2b"
    top: "res4b7_branch2b"
    name: "bn4b7_branch2b"
    type: "BatchNorm"
    batch_norm_param {
        use_global_stats: false
    }
    param {
        lr_mult: 0
    }
    param {
        lr_mult: 0
    }
    param {
        lr_mult: 0
    }
}

layer {
    bottom: "res4b7_branch2b"
    top: "res4b7_branch2b"
    name: "scale4b7_branch2b"
    type: "Scale"
    scale_param {
        bias_term: true
    }
    param {
        lr_mult: 0
    }
    param {
        lr_mult: 0
    }
}

layer {
    bottom: "res4b7_branch2b"
    top: "res4b7_branch2b"
    name: "res4b7_branch2b_relu"
    type: "ReLU"
}

layer {
    bottom: "res4b7_branch2b"
    top: "res4b7_branch2c"
    name: "res4b7_branch2c"
    type: "Convolution"
    convolution_param {
        num_output: 1024
        kernel_size: 1
        pad: 0
        stride: 1
        weight_filler {
            type: "msra"
        }
        bias_term: false

    }
    param {
        lr_mult: 0
    }
}

layer {
    bottom: "res4b7_branch2c"
    top: "res4b7_branch2c"
    name: "bn4b7_branch2c"
    type: "BatchNorm"
    batch_norm_param {
        use_global_stats: false
    }
    param {
        lr_mult: 0
    }
    param {
        lr_mult: 0
    }
    param {
        lr_mult: 0
    }
}

layer {
    bottom: "res4b7_branch2c"
    top: "res4b7_branch2c"
    name: "scale4b7_branch2c"
    type: "Scale"
    scale_param {
        bias_term: true
    }
    param {
        lr_mult: 0
    }
    param {
        lr_mult: 0
    }
}

layer {
    bottom: "res4b6"
    bottom: "res4b7_branch2c"
    top: "res4b7"
    name: "res4b7"
    type: "Eltwise"
    eltwise_param {
        operation: SUM
    }
}

layer {
    bottom: "res4b7"
    top: "res4b7"
    name: "res4b7_relu"
    type: "ReLU"
}

layer {
    bottom: "res4b7"
    top: "res4b8_branch2a"
    name: "res4b8_branch2a"
    type: "Convolution"
    convolution_param {
        num_output: 256
        kernel_size: 1
        pad: 0
        stride: 1
        weight_filler {
            type: "msra"
        }
        bias_term: false

    }
    param {
        lr_mult: 0
    }
}

layer {
    bottom: "res4b8_branch2a"
    top: "res4b8_branch2a"
    name: "bn4b8_branch2a"
    type: "BatchNorm"
    batch_norm_param {
        use_global_stats: false
    }
    param {
        lr_mult: 0
    }
    param {
        lr_mult: 0
    }
    param {
        lr_mult: 0
    }
}

layer {
    bottom: "res4b8_branch2a"
    top: "res4b8_branch2a"
    name: "scale4b8_branch2a"
    type: "Scale"
    scale_param {
        bias_term: true
    }
    param {
        lr_mult: 0
    }
    param {
        lr_mult: 0
    }
}

layer {
    bottom: "res4b8_branch2a"
    top: "res4b8_branch2a"
    name: "res4b8_branch2a_relu"
    type: "ReLU"
}

layer {
    bottom: "res4b8_branch2a"
    top: "res4b8_branch2b"
    name: "res4b8_branch2b"
    type: "Convolution"
    convolution_param {
        num_output: 256
        kernel_size: 3
        pad: 1
        stride: 1
        weight_filler {
            type: "msra"
        }
        bias_term: false

    }
    param {
        lr_mult: 0
    }
}

layer {
    bottom: "res4b8_branch2b"
    top: "res4b8_branch2b"
    name: "bn4b8_branch2b"
    type: "BatchNorm"
    batch_norm_param {
        use_global_stats: false
    }
    param {
        lr_mult: 0
    }
    param {
        lr_mult: 0
    }
    param {
        lr_mult: 0
    }
}

layer {
    bottom: "res4b8_branch2b"
    top: "res4b8_branch2b"
    name: "scale4b8_branch2b"
    type: "Scale"
    scale_param {
        bias_term: true
    }
    param {
        lr_mult: 0
    }
    param {
        lr_mult: 0
    }
}

layer {
    bottom: "res4b8_branch2b"
    top: "res4b8_branch2b"
    name: "res4b8_branch2b_relu"
    type: "ReLU"
}

layer {
    bottom: "res4b8_branch2b"
    top: "res4b8_branch2c"
    name: "res4b8_branch2c"
    type: "Convolution"
    convolution_param {
        num_output: 1024
        kernel_size: 1
        pad: 0
        stride: 1
        weight_filler {
            type: "msra"
        }
        bias_term: false

    }
    param {
        lr_mult: 0
    }
}

layer {
    bottom: "res4b8_branch2c"
    top: "res4b8_branch2c"
    name: "bn4b8_branch2c"
    type: "BatchNorm"
    batch_norm_param {
        use_global_stats: false
    }
    param {
        lr_mult: 0
    }
    param {
        lr_mult: 0
    }
    param {
        lr_mult: 0
    }
}

layer {
    bottom: "res4b8_branch2c"
    top: "res4b8_branch2c"
    name: "scale4b8_branch2c"
    type: "Scale"
    scale_param {
        bias_term: true
    }
    param {
        lr_mult: 0
    }
    param {
        lr_mult: 0
    }
}

layer {
    bottom: "res4b7"
    bottom: "res4b8_branch2c"
    top: "res4b8"
    name: "res4b8"
    type: "Eltwise"
    eltwise_param {
        operation: SUM
    }
}

layer {
    bottom: "res4b8"
    top: "res4b8"
    name: "res4b8_relu"
    type: "ReLU"
}

layer {
    bottom: "res4b8"
    top: "res4b9_branch2a"
    name: "res4b9_branch2a"
    type: "Convolution"
    convolution_param {
        num_output: 256
        kernel_size: 1
        pad: 0
        stride: 1
        weight_filler {
            type: "msra"
        }
        bias_term: false

    }
    param {
        lr_mult: 0
    }
}

layer {
    bottom: "res4b9_branch2a"
    top: "res4b9_branch2a"
    name: "bn4b9_branch2a"
    type: "BatchNorm"
    batch_norm_param {
        use_global_stats: false
    }
    param {
        lr_mult: 0
    }
    param {
        lr_mult: 0
    }
    param {
        lr_mult: 0
    }
}

layer {
    bottom: "res4b9_branch2a"
    top: "res4b9_branch2a"
    name: "scale4b9_branch2a"
    type: "Scale"
    scale_param {
        bias_term: true
    }
    param {
        lr_mult: 0
    }
    param {
        lr_mult: 0
    }
}

layer {
    bottom: "res4b9_branch2a"
    top: "res4b9_branch2a"
    name: "res4b9_branch2a_relu"
    type: "ReLU"
}

layer {
    bottom: "res4b9_branch2a"
    top: "res4b9_branch2b"
    name: "res4b9_branch2b"
    type: "Convolution"
    convolution_param {
        num_output: 256
        kernel_size: 3
        pad: 1
        stride: 1
        weight_filler {
            type: "msra"
        }
        bias_term: false

    }
    param {
        lr_mult: 0
    }
}

layer {
    bottom: "res4b9_branch2b"
    top: "res4b9_branch2b"
    name: "bn4b9_branch2b"
    type: "BatchNorm"
    batch_norm_param {
        use_global_stats: false
    }
    param {
        lr_mult: 0
    }
    param {
        lr_mult: 0
    }
    param {
        lr_mult: 0
    }
}

layer {
    bottom: "res4b9_branch2b"
    top: "res4b9_branch2b"
    name: "scale4b9_branch2b"
    type: "Scale"
    scale_param {
        bias_term: true
    }
    param {
        lr_mult: 0
    }
    param {
        lr_mult: 0
    }
}

layer {
    bottom: "res4b9_branch2b"
    top: "res4b9_branch2b"
    name: "res4b9_branch2b_relu"
    type: "ReLU"
}

layer {
    bottom: "res4b9_branch2b"
    top: "res4b9_branch2c"
    name: "res4b9_branch2c"
    type: "Convolution"
    convolution_param {
        num_output: 1024
        kernel_size: 1
        pad: 0
        stride: 1
        weight_filler {
            type: "msra"
        }
        bias_term: false

    }
    param {
        lr_mult: 0
    }
}

layer {
    bottom: "res4b9_branch2c"
    top: "res4b9_branch2c"
    name: "bn4b9_branch2c"
    type: "BatchNorm"
    batch_norm_param {
        use_global_stats: false
    }
    param {
        lr_mult: 0
    }
    param {
        lr_mult: 0
    }
    param {
        lr_mult: 0
    }
}

layer {
    bottom: "res4b9_branch2c"
    top: "res4b9_branch2c"
    name: "scale4b9_branch2c"
    type: "Scale"
    scale_param {
        bias_term: true
    }
    param {
        lr_mult: 0
    }
    param {
        lr_mult: 0
    }
}

layer {
    bottom: "res4b8"
    bottom: "res4b9_branch2c"
    top: "res4b9"
    name: "res4b9"
    type: "Eltwise"
    eltwise_param {
        operation: SUM
    }
}

layer {
    bottom: "res4b9"
    top: "res4b9"
    name: "res4b9_relu"
    type: "ReLU"
}

layer {
    bottom: "res4b9"
    top: "res4b10_branch2a"
    name: "res4b10_branch2a"
    type: "Convolution"
    convolution_param {
        num_output: 256
        kernel_size: 1
        pad: 0
        stride: 1
        weight_filler {
            type: "msra"
        }
        bias_term: false

    }
    param {
        lr_mult: 0
    }
}

layer {
    bottom: "res4b10_branch2a"
    top: "res4b10_branch2a"
    name: "bn4b10_branch2a"
    type: "BatchNorm"
    batch_norm_param {
        use_global_stats: false
    }
    param {
        lr_mult: 0
    }
    param {
        lr_mult: 0
    }
    param {
        lr_mult: 0
    }
}

layer {
    bottom: "res4b10_branch2a"
    top: "res4b10_branch2a"
    name: "scale4b10_branch2a"
    type: "Scale"
    scale_param {
        bias_term: true
    }
    param {
        lr_mult: 0
    }
    param {
        lr_mult: 0
    }
}

layer {
    bottom: "res4b10_branch2a"
    top: "res4b10_branch2a"
    name: "res4b10_branch2a_relu"
    type: "ReLU"
}

layer {
    bottom: "res4b10_branch2a"
    top: "res4b10_branch2b"
    name: "res4b10_branch2b"
    type: "Convolution"
    convolution_param {
        num_output: 256
        kernel_size: 3
        pad: 1
        stride: 1
        weight_filler {
            type: "msra"
        }
        bias_term: false

    }
    param {
        lr_mult: 0
    }
}

layer {
    bottom: "res4b10_branch2b"
    top: "res4b10_branch2b"
    name: "bn4b10_branch2b"
    type: "BatchNorm"
    batch_norm_param {
        use_global_stats: false
    }
    param {
        lr_mult: 0
    }
    param {
        lr_mult: 0
    }
    param {
        lr_mult: 0
    }
}

layer {
    bottom: "res4b10_branch2b"
    top: "res4b10_branch2b"
    name: "scale4b10_branch2b"
    type: "Scale"
    scale_param {
        bias_term: true
    }
    param {
        lr_mult: 0
    }
    param {
        lr_mult: 0
    }
}

layer {
    bottom: "res4b10_branch2b"
    top: "res4b10_branch2b"
    name: "res4b10_branch2b_relu"
    type: "ReLU"
}

layer {
    bottom: "res4b10_branch2b"
    top: "res4b10_branch2c"
    name: "res4b10_branch2c"
    type: "Convolution"
    convolution_param {
        num_output: 1024
        kernel_size: 1
        pad: 0
        stride: 1
        weight_filler {
            type: "msra"
        }
        bias_term: false

    }
    param {
        lr_mult: 0
    }
}

layer {
    bottom: "res4b10_branch2c"
    top: "res4b10_branch2c"
    name: "bn4b10_branch2c"
    type: "BatchNorm"
    batch_norm_param {
        use_global_stats: false
    }
    param {
        lr_mult: 0
    }
    param {
        lr_mult: 0
    }
    param {
        lr_mult: 0
    }
}

layer {
    bottom: "res4b10_branch2c"
    top: "res4b10_branch2c"
    name: "scale4b10_branch2c"
    type: "Scale"
    scale_param {
        bias_term: true
    }
    param {
        lr_mult: 0
    }
    param {
        lr_mult: 0
    }
}

layer {
    bottom: "res4b9"
    bottom: "res4b10_branch2c"
    top: "res4b10"
    name: "res4b10"
    type: "Eltwise"
    eltwise_param {
        operation: SUM
    }
}

layer {
    bottom: "res4b10"
    top: "res4b10"
    name: "res4b10_relu"
    type: "ReLU"
}

layer {
    bottom: "res4b10"
    top: "res4b11_branch2a"
    name: "res4b11_branch2a"
    type: "Convolution"
    convolution_param {
        num_output: 256
        kernel_size: 1
        pad: 0
        stride: 1
        weight_filler {
            type: "msra"
        }
        bias_term: false

    }
    param {
        lr_mult: 0
    }
}

layer {
    bottom: "res4b11_branch2a"
    top: "res4b11_branch2a"
    name: "bn4b11_branch2a"
    type: "BatchNorm"
    batch_norm_param {
        use_global_stats: false
    }
    param {
        lr_mult: 0
    }
    param {
        lr_mult: 0
    }
    param {
        lr_mult: 0
    }
}

layer {
    bottom: "res4b11_branch2a"
    top: "res4b11_branch2a"
    name: "scale4b11_branch2a"
    type: "Scale"
    scale_param {
        bias_term: true
    }
    param {
        lr_mult: 0
    }
    param {
        lr_mult: 0
    }
}

layer {
    bottom: "res4b11_branch2a"
    top: "res4b11_branch2a"
    name: "res4b11_branch2a_relu"
    type: "ReLU"
}

layer {
    bottom: "res4b11_branch2a"
    top: "res4b11_branch2b"
    name: "res4b11_branch2b"
    type: "Convolution"
    convolution_param {
        num_output: 256
        kernel_size: 3
        pad: 1
        stride: 1
        weight_filler {
            type: "msra"
        }
        bias_term: false

    }
    param {
        lr_mult: 0
    }
}

layer {
    bottom: "res4b11_branch2b"
    top: "res4b11_branch2b"
    name: "bn4b11_branch2b"
    type: "BatchNorm"
    batch_norm_param {
        use_global_stats: false
    }
    param {
        lr_mult: 0
    }
    param {
        lr_mult: 0
    }
    param {
        lr_mult: 0
    }
}

layer {
    bottom: "res4b11_branch2b"
    top: "res4b11_branch2b"
    name: "scale4b11_branch2b"
    type: "Scale"
    scale_param {
        bias_term: true
    }
    param {
        lr_mult: 0
    }
    param {
        lr_mult: 0
    }
}

layer {
    bottom: "res4b11_branch2b"
    top: "res4b11_branch2b"
    name: "res4b11_branch2b_relu"
    type: "ReLU"
}

layer {
    bottom: "res4b11_branch2b"
    top: "res4b11_branch2c"
    name: "res4b11_branch2c"
    type: "Convolution"
    convolution_param {
        num_output: 1024
        kernel_size: 1
        pad: 0
        stride: 1
        weight_filler {
            type: "msra"
        }
        bias_term: false

    }
    param {
        lr_mult: 0
    }
}

layer {
    bottom: "res4b11_branch2c"
    top: "res4b11_branch2c"
    name: "bn4b11_branch2c"
    type: "BatchNorm"
    batch_norm_param {
        use_global_stats: false
    }
    param {
        lr_mult: 0
    }
    param {
        lr_mult: 0
    }
    param {
        lr_mult: 0
    }
}

layer {
    bottom: "res4b11_branch2c"
    top: "res4b11_branch2c"
    name: "scale4b11_branch2c"
    type: "Scale"
    scale_param {
        bias_term: true
    }
    param {
        lr_mult: 0
    }
    param {
        lr_mult: 0
    }
}

layer {
    bottom: "res4b10"
    bottom: "res4b11_branch2c"
    top: "res4b11"
    name: "res4b11"
    type: "Eltwise"
    eltwise_param {
        operation: SUM
    }
}

layer {
    bottom: "res4b11"
    top: "res4b11"
    name: "res4b11_relu"
    type: "ReLU"
}

layer {
    bottom: "res4b11"
    top: "res4b12_branch2a"
    name: "res4b12_branch2a"
    type: "Convolution"
    convolution_param {
        num_output: 256
        kernel_size: 1
        pad: 0
        stride: 1
        weight_filler {
            type: "msra"
        }
        bias_term: false

    }
    param {
        lr_mult: 0
    }
}

layer {
    bottom: "res4b12_branch2a"
    top: "res4b12_branch2a"
    name: "bn4b12_branch2a"
    type: "BatchNorm"
    batch_norm_param {
        use_global_stats: false
    }
    param {
        lr_mult: 0
    }
    param {
        lr_mult: 0
    }
    param {
        lr_mult: 0
    }
}

layer {
    bottom: "res4b12_branch2a"
    top: "res4b12_branch2a"
    name: "scale4b12_branch2a"
    type: "Scale"
    scale_param {
        bias_term: true
    }
    param {
        lr_mult: 0
    }
    param {
        lr_mult: 0
    }
}

layer {
    bottom: "res4b12_branch2a"
    top: "res4b12_branch2a"
    name: "res4b12_branch2a_relu"
    type: "ReLU"
}

layer {
    bottom: "res4b12_branch2a"
    top: "res4b12_branch2b"
    name: "res4b12_branch2b"
    type: "Convolution"
    convolution_param {
        num_output: 256
        kernel_size: 3
        pad: 1
        stride: 1
        weight_filler {
            type: "msra"
        }
        bias_term: false

    }
    param {
        lr_mult: 0
    }
}

layer {
    bottom: "res4b12_branch2b"
    top: "res4b12_branch2b"
    name: "bn4b12_branch2b"
    type: "BatchNorm"
    batch_norm_param {
        use_global_stats: false
    }
    param {
        lr_mult: 0
    }
    param {
        lr_mult: 0
    }
    param {
        lr_mult: 0
    }
}

layer {
    bottom: "res4b12_branch2b"
    top: "res4b12_branch2b"
    name: "scale4b12_branch2b"
    type: "Scale"
    scale_param {
        bias_term: true
    }
    param {
        lr_mult: 0
    }
    param {
        lr_mult: 0
    }
}

layer {
    bottom: "res4b12_branch2b"
    top: "res4b12_branch2b"
    name: "res4b12_branch2b_relu"
    type: "ReLU"
}

layer {
    bottom: "res4b12_branch2b"
    top: "res4b12_branch2c"
    name: "res4b12_branch2c"
    type: "Convolution"
    convolution_param {
        num_output: 1024
        kernel_size: 1
        pad: 0
        stride: 1
        weight_filler {
            type: "msra"
        }
        bias_term: false

    }
    param {
        lr_mult: 0
    }
}

layer {
    bottom: "res4b12_branch2c"
    top: "res4b12_branch2c"
    name: "bn4b12_branch2c"
    type: "BatchNorm"
    batch_norm_param {
        use_global_stats: false
    }
    param {
        lr_mult: 0
    }
    param {
        lr_mult: 0
    }
    param {
        lr_mult: 0
    }
}

layer {
    bottom: "res4b12_branch2c"
    top: "res4b12_branch2c"
    name: "scale4b12_branch2c"
    type: "Scale"
    scale_param {
        bias_term: true
    }
    param {
        lr_mult: 0
    }
    param {
        lr_mult: 0
    }
}

layer {
    bottom: "res4b11"
    bottom: "res4b12_branch2c"
    top: "res4b12"
    name: "res4b12"
    type: "Eltwise"
    eltwise_param {
        operation: SUM
    }
}

layer {
    bottom: "res4b12"
    top: "res4b12"
    name: "res4b12_relu"
    type: "ReLU"
}

layer {
    bottom: "res4b12"
    top: "res4b13_branch2a"
    name: "res4b13_branch2a"
    type: "Convolution"
    convolution_param {
        num_output: 256
        kernel_size: 1
        pad: 0
        stride: 1
        weight_filler {
            type: "msra"
        }
        bias_term: false

    }
    param {
        lr_mult: 0
    }
}

layer {
    bottom: "res4b13_branch2a"
    top: "res4b13_branch2a"
    name: "bn4b13_branch2a"
    type: "BatchNorm"
    batch_norm_param {
        use_global_stats: false
    }
    param {
        lr_mult: 0
    }
    param {
        lr_mult: 0
    }
    param {
        lr_mult: 0
    }
}

layer {
    bottom: "res4b13_branch2a"
    top: "res4b13_branch2a"
    name: "scale4b13_branch2a"
    type: "Scale"
    scale_param {
        bias_term: true
    }
    param {
        lr_mult: 0
    }
    param {
        lr_mult: 0
    }
}

layer {
    bottom: "res4b13_branch2a"
    top: "res4b13_branch2a"
    name: "res4b13_branch2a_relu"
    type: "ReLU"
}

layer {
    bottom: "res4b13_branch2a"
    top: "res4b13_branch2b"
    name: "res4b13_branch2b"
    type: "Convolution"
    convolution_param {
        num_output: 256
        kernel_size: 3
        pad: 1
        stride: 1
        weight_filler {
            type: "msra"
        }
        bias_term: false

    }
    param {
        lr_mult: 0
    }
}

layer {
    bottom: "res4b13_branch2b"
    top: "res4b13_branch2b"
    name: "bn4b13_branch2b"
    type: "BatchNorm"
    batch_norm_param {
        use_global_stats: false
    }
    param {
        lr_mult: 0
    }
    param {
        lr_mult: 0
    }
    param {
        lr_mult: 0
    }
}

layer {
    bottom: "res4b13_branch2b"
    top: "res4b13_branch2b"
    name: "scale4b13_branch2b"
    type: "Scale"
    scale_param {
        bias_term: true
    }
    param {
        lr_mult: 0
    }
    param {
        lr_mult: 0
    }
}

layer {
    bottom: "res4b13_branch2b"
    top: "res4b13_branch2b"
    name: "res4b13_branch2b_relu"
    type: "ReLU"
}

layer {
    bottom: "res4b13_branch2b"
    top: "res4b13_branch2c"
    name: "res4b13_branch2c"
    type: "Convolution"
    convolution_param {
        num_output: 1024
        kernel_size: 1
        pad: 0
        stride: 1
        weight_filler {
            type: "msra"
        }
        bias_term: false

    }
    param {
        lr_mult: 0
    }
}

layer {
    bottom: "res4b13_branch2c"
    top: "res4b13_branch2c"
    name: "bn4b13_branch2c"
    type: "BatchNorm"
    batch_norm_param {
        use_global_stats: false
    }
    param {
        lr_mult: 0
    }
    param {
        lr_mult: 0
    }
    param {
        lr_mult: 0
    }
}

layer {
    bottom: "res4b13_branch2c"
    top: "res4b13_branch2c"
    name: "scale4b13_branch2c"
    type: "Scale"
    scale_param {
        bias_term: true
    }
    param {
        lr_mult: 0
    }
    param {
        lr_mult: 0
    }
}

layer {
    bottom: "res4b12"
    bottom: "res4b13_branch2c"
    top: "res4b13"
    name: "res4b13"
    type: "Eltwise"
    eltwise_param {
        operation: SUM
    }
}

layer {
    bottom: "res4b13"
    top: "res4b13"
    name: "res4b13_relu"
    type: "ReLU"
}

layer {
    bottom: "res4b13"
    top: "res4b14_branch2a"
    name: "res4b14_branch2a"
    type: "Convolution"
    convolution_param {
        num_output: 256
        kernel_size: 1
        pad: 0
        stride: 1
        weight_filler {
            type: "msra"
        }
        bias_term: false

    }
    param {
        lr_mult: 0
    }
}

layer {
    bottom: "res4b14_branch2a"
    top: "res4b14_branch2a"
    name: "bn4b14_branch2a"
    type: "BatchNorm"
    batch_norm_param {
        use_global_stats: false
    }
    param {
        lr_mult: 0
    }
    param {
        lr_mult: 0
    }
    param {
        lr_mult: 0
    }
}

layer {
    bottom: "res4b14_branch2a"
    top: "res4b14_branch2a"
    name: "scale4b14_branch2a"
    type: "Scale"
    scale_param {
        bias_term: true
    }
    param {
        lr_mult: 0
    }
    param {
        lr_mult: 0
    }
}

layer {
    bottom: "res4b14_branch2a"
    top: "res4b14_branch2a"
    name: "res4b14_branch2a_relu"
    type: "ReLU"
}

layer {
    bottom: "res4b14_branch2a"
    top: "res4b14_branch2b"
    name: "res4b14_branch2b"
    type: "Convolution"
    convolution_param {
        num_output: 256
        kernel_size: 3
        pad: 1
        stride: 1
        weight_filler {
            type: "msra"
        }
        bias_term: false

    }
    param {
        lr_mult: 0
    }
}

layer {
    bottom: "res4b14_branch2b"
    top: "res4b14_branch2b"
    name: "bn4b14_branch2b"
    type: "BatchNorm"
    batch_norm_param {
        use_global_stats: false
    }
    param {
        lr_mult: 0
    }
    param {
        lr_mult: 0
    }
    param {
        lr_mult: 0
    }
}

layer {
    bottom: "res4b14_branch2b"
    top: "res4b14_branch2b"
    name: "scale4b14_branch2b"
    type: "Scale"
    scale_param {
        bias_term: true
    }
    param {
        lr_mult: 0
    }
    param {
        lr_mult: 0
    }
}

layer {
    bottom: "res4b14_branch2b"
    top: "res4b14_branch2b"
    name: "res4b14_branch2b_relu"
    type: "ReLU"
}

layer {
    bottom: "res4b14_branch2b"
    top: "res4b14_branch2c"
    name: "res4b14_branch2c"
    type: "Convolution"
    convolution_param {
        num_output: 1024
        kernel_size: 1
        pad: 0
        stride: 1
        weight_filler {
            type: "msra"
        }
        bias_term: false

    }
    param {
        lr_mult: 0
    }
}

layer {
    bottom: "res4b14_branch2c"
    top: "res4b14_branch2c"
    name: "bn4b14_branch2c"
    type: "BatchNorm"
    batch_norm_param {
        use_global_stats: false
    }
    param {
        lr_mult: 0
    }
    param {
        lr_mult: 0
    }
    param {
        lr_mult: 0
    }
}

layer {
    bottom: "res4b14_branch2c"
    top: "res4b14_branch2c"
    name: "scale4b14_branch2c"
    type: "Scale"
    scale_param {
        bias_term: true
    }
    param {
        lr_mult: 0
    }
    param {
        lr_mult: 0
    }
}

layer {
    bottom: "res4b13"
    bottom: "res4b14_branch2c"
    top: "res4b14"
    name: "res4b14"
    type: "Eltwise"
    eltwise_param {
        operation: SUM
    }
}

layer {
    bottom: "res4b14"
    top: "res4b14"
    name: "res4b14_relu"
    type: "ReLU"
}

layer {
    bottom: "res4b14"
    top: "res4b15_branch2a"
    name: "res4b15_branch2a"
    type: "Convolution"
    convolution_param {
        num_output: 256
        kernel_size: 1
        pad: 0
        stride: 1
        weight_filler {
            type: "msra"
        }
        bias_term: false

    }
    param {
        lr_mult: 0
    }
}

layer {
    bottom: "res4b15_branch2a"
    top: "res4b15_branch2a"
    name: "bn4b15_branch2a"
    type: "BatchNorm"
    batch_norm_param {
        use_global_stats: false
    }
    param {
        lr_mult: 0
    }
    param {
        lr_mult: 0
    }
    param {
        lr_mult: 0
    }
}

layer {
    bottom: "res4b15_branch2a"
    top: "res4b15_branch2a"
    name: "scale4b15_branch2a"
    type: "Scale"
    scale_param {
        bias_term: true
    }
    param {
        lr_mult: 0
    }
    param {
        lr_mult: 0
    }
}

layer {
    bottom: "res4b15_branch2a"
    top: "res4b15_branch2a"
    name: "res4b15_branch2a_relu"
    type: "ReLU"
}

layer {
    bottom: "res4b15_branch2a"
    top: "res4b15_branch2b"
    name: "res4b15_branch2b"
    type: "Convolution"
    convolution_param {
        num_output: 256
        kernel_size: 3
        pad: 1
        stride: 1
        weight_filler {
            type: "msra"
        }
        bias_term: false

    }
    param {
        lr_mult: 0
    }
}

layer {
    bottom: "res4b15_branch2b"
    top: "res4b15_branch2b"
    name: "bn4b15_branch2b"
    type: "BatchNorm"
    batch_norm_param {
        use_global_stats: false
    }
    param {
        lr_mult: 0
    }
    param {
        lr_mult: 0
    }
    param {
        lr_mult: 0
    }
}

layer {
    bottom: "res4b15_branch2b"
    top: "res4b15_branch2b"
    name: "scale4b15_branch2b"
    type: "Scale"
    scale_param {
        bias_term: true
    }
    param {
        lr_mult: 0
    }
    param {
        lr_mult: 0
    }
}

layer {
    bottom: "res4b15_branch2b"
    top: "res4b15_branch2b"
    name: "res4b15_branch2b_relu"
    type: "ReLU"
}

layer {
    bottom: "res4b15_branch2b"
    top: "res4b15_branch2c"
    name: "res4b15_branch2c"
    type: "Convolution"
    convolution_param {
        num_output: 1024
        kernel_size: 1
        pad: 0
        stride: 1
        weight_filler {
            type: "msra"
        }
        bias_term: false

    }
    param {
        lr_mult: 0
    }
}

layer {
    bottom: "res4b15_branch2c"
    top: "res4b15_branch2c"
    name: "bn4b15_branch2c"
    type: "BatchNorm"
    batch_norm_param {
        use_global_stats: false
    }
    param {
        lr_mult: 0
    }
    param {
        lr_mult: 0
    }
    param {
        lr_mult: 0
    }
}

layer {
    bottom: "res4b15_branch2c"
    top: "res4b15_branch2c"
    name: "scale4b15_branch2c"
    type: "Scale"
    scale_param {
        bias_term: true
    }
    param {
        lr_mult: 0
    }
    param {
        lr_mult: 0
    }
}

layer {
    bottom: "res4b14"
    bottom: "res4b15_branch2c"
    top: "res4b15"
    name: "res4b15"
    type: "Eltwise"
    eltwise_param {
        operation: SUM
    }
}

layer {
    bottom: "res4b15"
    top: "res4b15"
    name: "res4b15_relu"
    type: "ReLU"
}

layer {
    bottom: "res4b15"
    top: "res4b16_branch2a"
    name: "res4b16_branch2a"
    type: "Convolution"
    convolution_param {
        num_output: 256
        kernel_size: 1
        pad: 0
        stride: 1
        weight_filler {
            type: "msra"
        }
        bias_term: false

    }
    param {
        lr_mult: 0
    }
}

layer {
    bottom: "res4b16_branch2a"
    top: "res4b16_branch2a"
    name: "bn4b16_branch2a"
    type: "BatchNorm"
    batch_norm_param {
        use_global_stats: false
    }
    param {
        lr_mult: 0
    }
    param {
        lr_mult: 0
    }
    param {
        lr_mult: 0
    }
}

layer {
    bottom: "res4b16_branch2a"
    top: "res4b16_branch2a"
    name: "scale4b16_branch2a"
    type: "Scale"
    scale_param {
        bias_term: true
    }
    param {
        lr_mult: 0
    }
    param {
        lr_mult: 0
    }
}

layer {
    bottom: "res4b16_branch2a"
    top: "res4b16_branch2a"
    name: "res4b16_branch2a_relu"
    type: "ReLU"
}

layer {
    bottom: "res4b16_branch2a"
    top: "res4b16_branch2b"
    name: "res4b16_branch2b"
    type: "Convolution"
    convolution_param {
        num_output: 256
        kernel_size: 3
        pad: 1
        stride: 1
        weight_filler {
            type: "msra"
        }
        bias_term: false

    }
    param {
        lr_mult: 0
    }
}

layer {
    bottom: "res4b16_branch2b"
    top: "res4b16_branch2b"
    name: "bn4b16_branch2b"
    type: "BatchNorm"
    batch_norm_param {
        use_global_stats: false
    }
    param {
        lr_mult: 0
    }
    param {
        lr_mult: 0
    }
    param {
        lr_mult: 0
    }
}

layer {
    bottom: "res4b16_branch2b"
    top: "res4b16_branch2b"
    name: "scale4b16_branch2b"
    type: "Scale"
    scale_param {
        bias_term: true
    }
    param {
        lr_mult: 0
    }
    param {
        lr_mult: 0
    }
}

layer {
    bottom: "res4b16_branch2b"
    top: "res4b16_branch2b"
    name: "res4b16_branch2b_relu"
    type: "ReLU"
}

layer {
    bottom: "res4b16_branch2b"
    top: "res4b16_branch2c"
    name: "res4b16_branch2c"
    type: "Convolution"
    convolution_param {
        num_output: 1024
        kernel_size: 1
        pad: 0
        stride: 1
        weight_filler {
            type: "msra"
        }
        bias_term: false

    }
    param {
        lr_mult: 0
    }
}

layer {
    bottom: "res4b16_branch2c"
    top: "res4b16_branch2c"
    name: "bn4b16_branch2c"
    type: "BatchNorm"
    batch_norm_param {
        use_global_stats: false
    }
    param {
        lr_mult: 0
    }
    param {
        lr_mult: 0
    }
    param {
        lr_mult: 0
    }
}

layer {
    bottom: "res4b16_branch2c"
    top: "res4b16_branch2c"
    name: "scale4b16_branch2c"
    type: "Scale"
    scale_param {
        bias_term: true
    }
    param {
        lr_mult: 0
    }
    param {
        lr_mult: 0
    }
}

layer {
    bottom: "res4b15"
    bottom: "res4b16_branch2c"
    top: "res4b16"
    name: "res4b16"
    type: "Eltwise"
    eltwise_param {
        operation: SUM
    }
}

layer {
    bottom: "res4b16"
    top: "res4b16"
    name: "res4b16_relu"
    type: "ReLU"
}

layer {
    bottom: "res4b16"
    top: "res4b17_branch2a"
    name: "res4b17_branch2a"
    type: "Convolution"
    convolution_param {
        num_output: 256
        kernel_size: 1
        pad: 0
        stride: 1
        weight_filler {
            type: "msra"
        }
        bias_term: false

    }
    param {
        lr_mult: 0
    }
}

layer {
    bottom: "res4b17_branch2a"
    top: "res4b17_branch2a"
    name: "bn4b17_branch2a"
    type: "BatchNorm"
    batch_norm_param {
        use_global_stats: false
    }
    param {
        lr_mult: 0
    }
    param {
        lr_mult: 0
    }
    param {
        lr_mult: 0
    }
}

layer {
    bottom: "res4b17_branch2a"
    top: "res4b17_branch2a"
    name: "scale4b17_branch2a"
    type: "Scale"
    scale_param {
        bias_term: true
    }
    param {
        lr_mult: 0
    }
    param {
        lr_mult: 0
    }
}

layer {
    bottom: "res4b17_branch2a"
    top: "res4b17_branch2a"
    name: "res4b17_branch2a_relu"
    type: "ReLU"
}

layer {
    bottom: "res4b17_branch2a"
    top: "res4b17_branch2b"
    name: "res4b17_branch2b"
    type: "Convolution"
    convolution_param {
        num_output: 256
        kernel_size: 3
        pad: 1
        stride: 1
        weight_filler {
            type: "msra"
        }
        bias_term: false

    }
    param {
        lr_mult: 0
    }
}

layer {
    bottom: "res4b17_branch2b"
    top: "res4b17_branch2b"
    name: "bn4b17_branch2b"
    type: "BatchNorm"
    batch_norm_param {
        use_global_stats: false
    }
    param {
        lr_mult: 0
    }
    param {
        lr_mult: 0
    }
    param {
        lr_mult: 0
    }
}

layer {
    bottom: "res4b17_branch2b"
    top: "res4b17_branch2b"
    name: "scale4b17_branch2b"
    type: "Scale"
    scale_param {
        bias_term: true
    }
    param {
        lr_mult: 0
    }
    param {
        lr_mult: 0
    }
}

layer {
    bottom: "res4b17_branch2b"
    top: "res4b17_branch2b"
    name: "res4b17_branch2b_relu"
    type: "ReLU"
}

layer {
    bottom: "res4b17_branch2b"
    top: "res4b17_branch2c"
    name: "res4b17_branch2c"
    type: "Convolution"
    convolution_param {
        num_output: 1024
        kernel_size: 1
        pad: 0
        stride: 1
        weight_filler {
            type: "msra"
        }
        bias_term: false

    }
    param {
        lr_mult: 0
    }
}

layer {
    bottom: "res4b17_branch2c"
    top: "res4b17_branch2c"
    name: "bn4b17_branch2c"
    type: "BatchNorm"
    batch_norm_param {
        use_global_stats: false
    }
    param {
        lr_mult: 0
    }
    param {
        lr_mult: 0
    }
    param {
        lr_mult: 0
    }
}

layer {
    bottom: "res4b17_branch2c"
    top: "res4b17_branch2c"
    name: "scale4b17_branch2c"
    type: "Scale"
    scale_param {
        bias_term: true
    }
    param {
        lr_mult: 0
    }
    param {
        lr_mult: 0
    }
}

layer {
    bottom: "res4b16"
    bottom: "res4b17_branch2c"
    top: "res4b17"
    name: "res4b17"
    type: "Eltwise"
    eltwise_param {
        operation: SUM
    }
}

layer {
    bottom: "res4b17"
    top: "res4b17"
    name: "res4b17_relu"
    type: "ReLU"
}

layer {
    bottom: "res4b17"
    top: "res4b18_branch2a"
    name: "res4b18_branch2a"
    type: "Convolution"
    convolution_param {
        num_output: 256
        kernel_size: 1
        pad: 0
        stride: 1
        weight_filler {
            type: "msra"
        }
        bias_term: false

    }
    param {
        lr_mult: 0
    }
}

layer {
    bottom: "res4b18_branch2a"
    top: "res4b18_branch2a"
    name: "bn4b18_branch2a"
    type: "BatchNorm"
    batch_norm_param {
        use_global_stats: false
    }
    param {
        lr_mult: 0
    }
    param {
        lr_mult: 0
    }
    param {
        lr_mult: 0
    }
}

layer {
    bottom: "res4b18_branch2a"
    top: "res4b18_branch2a"
    name: "scale4b18_branch2a"
    type: "Scale"
    scale_param {
        bias_term: true
    }
    param {
        lr_mult: 0
    }
    param {
        lr_mult: 0
    }
}

layer {
    bottom: "res4b18_branch2a"
    top: "res4b18_branch2a"
    name: "res4b18_branch2a_relu"
    type: "ReLU"
}

layer {
    bottom: "res4b18_branch2a"
    top: "res4b18_branch2b"
    name: "res4b18_branch2b"
    type: "Convolution"
    convolution_param {
        num_output: 256
        kernel_size: 3
        pad: 1
        stride: 1
        weight_filler {
            type: "msra"
        }
        bias_term: false

    }
    param {
        lr_mult: 0
    }
}

layer {
    bottom: "res4b18_branch2b"
    top: "res4b18_branch2b"
    name: "bn4b18_branch2b"
    type: "BatchNorm"
    batch_norm_param {
        use_global_stats: false
    }
    param {
        lr_mult: 0
    }
    param {
        lr_mult: 0
    }
    param {
        lr_mult: 0
    }
}

layer {
    bottom: "res4b18_branch2b"
    top: "res4b18_branch2b"
    name: "scale4b18_branch2b"
    type: "Scale"
    scale_param {
        bias_term: true
    }
    param {
        lr_mult: 0
    }
    param {
        lr_mult: 0
    }
}

layer {
    bottom: "res4b18_branch2b"
    top: "res4b18_branch2b"
    name: "res4b18_branch2b_relu"
    type: "ReLU"
}

layer {
    bottom: "res4b18_branch2b"
    top: "res4b18_branch2c"
    name: "res4b18_branch2c"
    type: "Convolution"
    convolution_param {
        num_output: 1024
        kernel_size: 1
        pad: 0
        stride: 1
        weight_filler {
            type: "msra"
        }
        bias_term: false

    }
    param {
        lr_mult: 0
    }
}

layer {
    bottom: "res4b18_branch2c"
    top: "res4b18_branch2c"
    name: "bn4b18_branch2c"
    type: "BatchNorm"
    batch_norm_param {
        use_global_stats: false
    }
    param {
        lr_mult: 0
    }
    param {
        lr_mult: 0
    }
    param {
        lr_mult: 0
    }
}

layer {
    bottom: "res4b18_branch2c"
    top: "res4b18_branch2c"
    name: "scale4b18_branch2c"
    type: "Scale"
    scale_param {
        bias_term: true
    }
    param {
        lr_mult: 0
    }
    param {
        lr_mult: 0
    }
}

layer {
    bottom: "res4b17"
    bottom: "res4b18_branch2c"
    top: "res4b18"
    name: "res4b18"
    type: "Eltwise"
    eltwise_param {
        operation: SUM
    }
}

layer {
    bottom: "res4b18"
    top: "res4b18"
    name: "res4b18_relu"
    type: "ReLU"
}

layer {
    bottom: "res4b18"
    top: "res4b19_branch2a"
    name: "res4b19_branch2a"
    type: "Convolution"
    convolution_param {
        num_output: 256
        kernel_size: 1
        pad: 0
        stride: 1
        weight_filler {
            type: "msra"
        }
        bias_term: false

    }
    param {
        lr_mult: 0
    }
}

layer {
    bottom: "res4b19_branch2a"
    top: "res4b19_branch2a"
    name: "bn4b19_branch2a"
    type: "BatchNorm"
    batch_norm_param {
        use_global_stats: false
    }
    param {
        lr_mult: 0
    }
    param {
        lr_mult: 0
    }
    param {
        lr_mult: 0
    }
}

layer {
    bottom: "res4b19_branch2a"
    top: "res4b19_branch2a"
    name: "scale4b19_branch2a"
    type: "Scale"
    scale_param {
        bias_term: true
    }
    param {
        lr_mult: 0
    }
    param {
        lr_mult: 0
    }
}

layer {
    bottom: "res4b19_branch2a"
    top: "res4b19_branch2a"
    name: "res4b19_branch2a_relu"
    type: "ReLU"
}

layer {
    bottom: "res4b19_branch2a"
    top: "res4b19_branch2b"
    name: "res4b19_branch2b"
    type: "Convolution"
    convolution_param {
        num_output: 256
        kernel_size: 3
        pad: 1
        stride: 1
        weight_filler {
            type: "msra"
        }
        bias_term: false

    }
    param {
        lr_mult: 0
    }
}

layer {
    bottom: "res4b19_branch2b"
    top: "res4b19_branch2b"
    name: "bn4b19_branch2b"
    type: "BatchNorm"
    batch_norm_param {
        use_global_stats: false
    }
    param {
        lr_mult: 0
    }
    param {
        lr_mult: 0
    }
    param {
        lr_mult: 0
    }
}

layer {
    bottom: "res4b19_branch2b"
    top: "res4b19_branch2b"
    name: "scale4b19_branch2b"
    type: "Scale"
    scale_param {
        bias_term: true
    }
    param {
        lr_mult: 0
    }
    param {
        lr_mult: 0
    }
}

layer {
    bottom: "res4b19_branch2b"
    top: "res4b19_branch2b"
    name: "res4b19_branch2b_relu"
    type: "ReLU"
}

layer {
    bottom: "res4b19_branch2b"
    top: "res4b19_branch2c"
    name: "res4b19_branch2c"
    type: "Convolution"
    convolution_param {
        num_output: 1024
        kernel_size: 1
        pad: 0
        stride: 1
        weight_filler {
            type: "msra"
        }
        bias_term: false

    }
    param {
        lr_mult: 0
    }
}

layer {
    bottom: "res4b19_branch2c"
    top: "res4b19_branch2c"
    name: "bn4b19_branch2c"
    type: "BatchNorm"
    batch_norm_param {
        use_global_stats: false
    }
    param {
        lr_mult: 0
    }
    param {
        lr_mult: 0
    }
    param {
        lr_mult: 0
    }
}

layer {
    bottom: "res4b19_branch2c"
    top: "res4b19_branch2c"
    name: "scale4b19_branch2c"
    type: "Scale"
    scale_param {
        bias_term: true
    }
    param {
        lr_mult: 0
    }
    param {
        lr_mult: 0
    }
}

layer {
    bottom: "res4b18"
    bottom: "res4b19_branch2c"
    top: "res4b19"
    name: "res4b19"
    type: "Eltwise"
    eltwise_param {
        operation: SUM
    }
}

layer {
    bottom: "res4b19"
    top: "res4b19"
    name: "res4b19_relu"
    type: "ReLU"
}

layer {
    bottom: "res4b19"
    top: "res4b20_branch2a"
    name: "res4b20_branch2a"
    type: "Convolution"
    convolution_param {
        num_output: 256
        kernel_size: 1
        pad: 0
        stride: 1
        weight_filler {
            type: "msra"
        }
        bias_term: false

    }
    param {
        lr_mult: 0
    }
}

layer {
    bottom: "res4b20_branch2a"
    top: "res4b20_branch2a"
    name: "bn4b20_branch2a"
    type: "BatchNorm"
    batch_norm_param {
        use_global_stats: false
    }
    param {
        lr_mult: 0
    }
    param {
        lr_mult: 0
    }
    param {
        lr_mult: 0
    }
}

layer {
    bottom: "res4b20_branch2a"
    top: "res4b20_branch2a"
    name: "scale4b20_branch2a"
    type: "Scale"
    scale_param {
        bias_term: true
    }
    param {
        lr_mult: 0
    }
    param {
        lr_mult: 0
    }
}

layer {
    bottom: "res4b20_branch2a"
    top: "res4b20_branch2a"
    name: "res4b20_branch2a_relu"
    type: "ReLU"
}

layer {
    bottom: "res4b20_branch2a"
    top: "res4b20_branch2b"
    name: "res4b20_branch2b"
    type: "Convolution"
    convolution_param {
        num_output: 256
        kernel_size: 3
        pad: 1
        stride: 1
        weight_filler {
            type: "msra"
        }
        bias_term: false

    }
    param {
        lr_mult: 0
    }
}

layer {
    bottom: "res4b20_branch2b"
    top: "res4b20_branch2b"
    name: "bn4b20_branch2b"
    type: "BatchNorm"
    batch_norm_param {
        use_global_stats: false
    }
    param {
        lr_mult: 0
    }
    param {
        lr_mult: 0
    }
    param {
        lr_mult: 0
    }
}

layer {
    bottom: "res4b20_branch2b"
    top: "res4b20_branch2b"
    name: "scale4b20_branch2b"
    type: "Scale"
    scale_param {
        bias_term: true
    }
    param {
        lr_mult: 0
    }
    param {
        lr_mult: 0
    }
}

layer {
    bottom: "res4b20_branch2b"
    top: "res4b20_branch2b"
    name: "res4b20_branch2b_relu"
    type: "ReLU"
}

layer {
    bottom: "res4b20_branch2b"
    top: "res4b20_branch2c"
    name: "res4b20_branch2c"
    type: "Convolution"
    convolution_param {
        num_output: 1024
        kernel_size: 1
        pad: 0
        stride: 1
        weight_filler {
            type: "msra"
        }
        bias_term: false

    }
    param {
        lr_mult: 0
    }
}

layer {
    bottom: "res4b20_branch2c"
    top: "res4b20_branch2c"
    name: "bn4b20_branch2c"
    type: "BatchNorm"
    batch_norm_param {
        use_global_stats: false
    }
    param {
        lr_mult: 0
    }
    param {
        lr_mult: 0
    }
    param {
        lr_mult: 0
    }
}

layer {
    bottom: "res4b20_branch2c"
    top: "res4b20_branch2c"
    name: "scale4b20_branch2c"
    type: "Scale"
    scale_param {
        bias_term: true
    }
    param {
        lr_mult: 0
    }
    param {
        lr_mult: 0
    }
}

layer {
    bottom: "res4b19"
    bottom: "res4b20_branch2c"
    top: "res4b20"
    name: "res4b20"
    type: "Eltwise"
    eltwise_param {
        operation: SUM
    }
}

layer {
    bottom: "res4b20"
    top: "res4b20"
    name: "res4b20_relu"
    type: "ReLU"
}

layer {
    bottom: "res4b20"
    top: "res4b21_branch2a"
    name: "res4b21_branch2a"
    type: "Convolution"
    convolution_param {
        num_output: 256
        kernel_size: 1
        pad: 0
        stride: 1
        weight_filler {
            type: "msra"
        }
        bias_term: false

    }
    param {
        lr_mult: 0
    }
}

layer {
    bottom: "res4b21_branch2a"
    top: "res4b21_branch2a"
    name: "bn4b21_branch2a"
    type: "BatchNorm"
    batch_norm_param {
        use_global_stats: false
    }
    param {
        lr_mult: 0
    }
    param {
        lr_mult: 0
    }
    param {
        lr_mult: 0
    }
}

layer {
    bottom: "res4b21_branch2a"
    top: "res4b21_branch2a"
    name: "scale4b21_branch2a"
    type: "Scale"
    scale_param {
        bias_term: true
    }
    param {
        lr_mult: 0
    }
    param {
        lr_mult: 0
    }
}

layer {
    bottom: "res4b21_branch2a"
    top: "res4b21_branch2a"
    name: "res4b21_branch2a_relu"
    type: "ReLU"
}

layer {
    bottom: "res4b21_branch2a"
    top: "res4b21_branch2b"
    name: "res4b21_branch2b"
    type: "Convolution"
    convolution_param {
        num_output: 256
        kernel_size: 3
        pad: 1
        stride: 1
        weight_filler {
            type: "msra"
        }
        bias_term: false

    }
    param {
        lr_mult: 0
    }
}

layer {
    bottom: "res4b21_branch2b"
    top: "res4b21_branch2b"
    name: "bn4b21_branch2b"
    type: "BatchNorm"
    batch_norm_param {
        use_global_stats: false
    }
    param {
        lr_mult: 0
    }
    param {
        lr_mult: 0
    }
    param {
        lr_mult: 0
    }
}

layer {
    bottom: "res4b21_branch2b"
    top: "res4b21_branch2b"
    name: "scale4b21_branch2b"
    type: "Scale"
    scale_param {
        bias_term: true
    }
    param {
        lr_mult: 0
    }
    param {
        lr_mult: 0
    }
}

layer {
    bottom: "res4b21_branch2b"
    top: "res4b21_branch2b"
    name: "res4b21_branch2b_relu"
    type: "ReLU"
}

layer {
    bottom: "res4b21_branch2b"
    top: "res4b21_branch2c"
    name: "res4b21_branch2c"
    type: "Convolution"
    convolution_param {
        num_output: 1024
        kernel_size: 1
        pad: 0
        stride: 1
        weight_filler {
            type: "msra"
        }
        bias_term: false

    }
    param {
        lr_mult: 0
    }
}

layer {
    bottom: "res4b21_branch2c"
    top: "res4b21_branch2c"
    name: "bn4b21_branch2c"
    type: "BatchNorm"
    batch_norm_param {
        use_global_stats: false
    }
    param {
        lr_mult: 0
    }
    param {
        lr_mult: 0
    }
    param {
        lr_mult: 0
    }
}

layer {
    bottom: "res4b21_branch2c"
    top: "res4b21_branch2c"
    name: "scale4b21_branch2c"
    type: "Scale"
    scale_param {
        bias_term: true
    }
    param {
        lr_mult: 0
    }
    param {
        lr_mult: 0
    }
}

layer {
    bottom: "res4b20"
    bottom: "res4b21_branch2c"
    top: "res4b21"
    name: "res4b21"
    type: "Eltwise"
    eltwise_param {
        operation: SUM
    }
}

layer {
    bottom: "res4b21"
    top: "res4b21"
    name: "res4b21_relu"
    type: "ReLU"
}

layer {
    bottom: "res4b21"
    top: "res4b22_branch2a"
    name: "res4b22_branch2a"
    type: "Convolution"
    convolution_param {
        num_output: 256
        kernel_size: 1
        pad: 0
        stride: 1
        weight_filler {
            type: "msra"
        }
        bias_term: false

    }
    param {
        lr_mult: 0
    }
}

layer {
    bottom: "res4b22_branch2a"
    top: "res4b22_branch2a"
    name: "bn4b22_branch2a"
    type: "BatchNorm"
    batch_norm_param {
        use_global_stats: false
    }
    param {
        lr_mult: 0
    }
    param {
        lr_mult: 0
    }
    param {
        lr_mult: 0
    }
}

layer {
    bottom: "res4b22_branch2a"
    top: "res4b22_branch2a"
    name: "scale4b22_branch2a"
    type: "Scale"
    scale_param {
        bias_term: true
    }
    param {
        lr_mult: 0
    }
    param {
        lr_mult: 0
    }
}

layer {
    bottom: "res4b22_branch2a"
    top: "res4b22_branch2a"
    name: "res4b22_branch2a_relu"
    type: "ReLU"
}

layer {
    bottom: "res4b22_branch2a"
    top: "res4b22_branch2b"
    name: "res4b22_branch2b"
    type: "Convolution"
    convolution_param {
        num_output: 256
        kernel_size: 3
        pad: 1
        stride: 1
        weight_filler {
            type: "msra"
        }
        bias_term: false

    }
    param {
        lr_mult: 0
    }
}

layer {
    bottom: "res4b22_branch2b"
    top: "res4b22_branch2b"
    name: "bn4b22_branch2b"
    type: "BatchNorm"
    batch_norm_param {
        use_global_stats: false
    }
    param {
        lr_mult: 0
    }
    param {
        lr_mult: 0
    }
    param {
        lr_mult: 0
    }
}

layer {
    bottom: "res4b22_branch2b"
    top: "res4b22_branch2b"
    name: "scale4b22_branch2b"
    type: "Scale"
    scale_param {
        bias_term: true
    }
    param {
        lr_mult: 0
    }
    param {
        lr_mult: 0
    }
}

layer {
    bottom: "res4b22_branch2b"
    top: "res4b22_branch2b"
    name: "res4b22_branch2b_relu"
    type: "ReLU"
}

layer {
    bottom: "res4b22_branch2b"
    top: "res4b22_branch2c"
    name: "res4b22_branch2c"
    type: "Convolution"
    convolution_param {
        num_output: 1024
        kernel_size: 1
        pad: 0
        stride: 1
        weight_filler {
            type: "msra"
        }
        bias_term: false

    }
    param {
        lr_mult: 0
    }
}

layer {
    bottom: "res4b22_branch2c"
    top: "res4b22_branch2c"
    name: "bn4b22_branch2c"
    type: "BatchNorm"
    batch_norm_param {
        use_global_stats: false
    }
    param {
        lr_mult: 0
    }
    param {
        lr_mult: 0
    }
    param {
        lr_mult: 0
    }
}

layer {
    bottom: "res4b22_branch2c"
    top: "res4b22_branch2c"
    name: "scale4b22_branch2c"
    type: "Scale"
    scale_param {
        bias_term: true
    }
    param {
        lr_mult: 0
    }
    param {
        lr_mult: 0
    }
}

layer {
    bottom: "res4b21"
    bottom: "res4b22_branch2c"
    top: "res4b22"
    name: "res4b22"
    type: "Eltwise"
    eltwise_param {
        operation: SUM
    }
}

layer {
    bottom: "res4b22"
    top: "res4b22"
    name: "res4b22_relu"
    type: "ReLU"
}


layer {
  name: "global_gather/1x1"
  type: "Convolution"
  bottom: "res4b22"
  top: "global_gather/1x1"
  param {
    lr_mult: 1
    decay_mult: 1
  }
  param {
    lr_mult: 2
    decay_mult: 0
  }
  convolution_param {
    num_output: 500
    pad: 0
    kernel_size: 1
    weight_filler {
      type: "xavier"
    }
    bias_filler {
      type: "constant"
      value: 0.2
    }
  }
}
layer {
    bottom: "global_gather/1x1"
    top: "global_gather/1x1"
    name: "bn_global_gather/1x1"
    type: "BatchNorm"
    batch_norm_param {
        use_global_stats: false
    }
}

layer {
    bottom: "global_gather/1x1"
    top: "global_gather/1x1"
    name: "scale_global_gather/1x1"
    type: "Scale"
    scale_param {
        bias_term: true
    }
}
layer {
  name: "global_gather/relu_1x1"
  type: "ReLU"
  bottom: "global_gather/1x1"
  top: "global_gather/1x1"
}
layer {
  name: "global_relate/15x15"
  type: "Convolution"
  bottom: "global_gather/1x1"
  top: "global_relate/15x15"
  param {
    lr_mult: 1
    decay_mult: 1
  }
  param {
    lr_mult: 2
    decay_mult: 0
  }
  convolution_param {
    num_output: 500
	group: 500
    pad: 7
	stride: 1
    kernel_size: 15
    weight_filler {
      type: "xavier"
    }
    bias_filler {
      type: "constant"
      value: 0.2
    }
  }
}
layer {
    bottom: "global_relate/15x15"
    top: "global_relate/15x15"
    name: "bn_global_relate/15x15"
    type: "BatchNorm"
    batch_norm_param {
        use_global_stats: false
    }
}

layer {
    bottom: "global_relate/15x15"
    top: "global_relate/15x15"
    name: "scale_global_relate/15x15"
    type: "Scale"
    scale_param {
        bias_term: true
    }
}
layer {
  name: "global_relate/relu_15x15"
  type: "ReLU"
  bottom: "global_relate/15x15"
  top: "global_relate/15x15"
}

layer {
    bottom: "global_relate/15x15"
    top: "pool5"
    name: "pool5"
    type: "Pooling"
    pooling_param {
        kernel_size: 14
        stride: 1
        pool: AVE
    }
}

layer {
    bottom: "pool5"
    top: "fc196"
    name: "fc196"
    type: "InnerProduct"
    param {
        lr_mult: 1
        decay_mult: 1
    }
    param {
        lr_mult: 2
        decay_mult: 1
    }
    inner_product_param {
        num_output: 196
        weight_filler {
            type: "xavier"
        }
        bias_filler {
            type: "constant"
            value: 0
        }
    }
}

layer {
    bottom: "fc196"
    bottom: "label"
    name: "loss"
    type: "SoftmaxWithLoss"
    top: "loss"
}

layer {
    bottom: "fc196"
    bottom: "label"
    top: "acc/top-1"
    name: "acc/top-1"
    type: "Accuracy"
    include {
        phase: TEST
    }
}

layer {
    bottom: "fc196"
    bottom: "label"
    top: "acc/top-5"
    name: "acc/top-5"
    type: "Accuracy"
    include {
        phase: TEST
    }
    accuracy_param {
        top_k: 5
    }
}
